<?xml version="1.0" ?>
<net name="text-recognition-0014" version="10">
	<layers>
		<layer id="0" name="imgs" type="Parameter" version="opset1">
			<data element_type="f32" shape="1, 1, 32, 128"/>
			<output>
				<port id="0" precision="FP32">
					<dim>1</dim>
					<dim>1</dim>
					<dim>32</dim>
					<dim>128</dim>
				</port>
			</output>
		</layer>
		<layer id="1" name="imgs/scale_copy" type="Const" version="opset1">
			<data element_type="f32" offset="0" shape="64, 1, 7, 7" size="12544"/>
			<output>
				<port id="0" names="backbone.conv1.weight" precision="FP32">
					<dim>64</dim>
					<dim>1</dim>
					<dim>7</dim>
					<dim>7</dim>
				</port>
			</output>
		</layer>
		<layer id="2" name="Conv_0" type="Convolution" version="opset1">
			<data auto_pad="explicit" dilations="1, 1" pads_begin="3, 3" pads_end="3, 3" strides="2, 2"/>
			<input>
				<port id="0" precision="FP32">
					<dim>1</dim>
					<dim>1</dim>
					<dim>32</dim>
					<dim>128</dim>
				</port>
				<port id="1" precision="FP32">
					<dim>64</dim>
					<dim>1</dim>
					<dim>7</dim>
					<dim>7</dim>
				</port>
			</input>
			<output>
				<port id="2" precision="FP32">
					<dim>1</dim>
					<dim>64</dim>
					<dim>16</dim>
					<dim>64</dim>
				</port>
			</output>
		</layer>
		<layer id="3" name="data_add_6847" type="Const" version="opset1">
			<data element_type="f32" offset="12544" shape="1, 64, 1, 1" size="256"/>
			<output>
				<port id="0" precision="FP32">
					<dim>1</dim>
					<dim>64</dim>
					<dim>1</dim>
					<dim>1</dim>
				</port>
			</output>
		</layer>
		<layer id="4" name="BatchNormalization_1/variance/Fused_Add_" type="Add" version="opset1">
			<data auto_broadcast="numpy"/>
			<input>
				<port id="0" precision="FP32">
					<dim>1</dim>
					<dim>64</dim>
					<dim>16</dim>
					<dim>64</dim>
				</port>
				<port id="1" precision="FP32">
					<dim>1</dim>
					<dim>64</dim>
					<dim>1</dim>
					<dim>1</dim>
				</port>
			</input>
			<output>
				<port id="2" names="182" precision="FP32">
					<dim>1</dim>
					<dim>64</dim>
					<dim>16</dim>
					<dim>64</dim>
				</port>
			</output>
		</layer>
		<layer id="5" name="Relu_2" type="ReLU" version="opset1">
			<input>
				<port id="0" precision="FP32">
					<dim>1</dim>
					<dim>64</dim>
					<dim>16</dim>
					<dim>64</dim>
				</port>
			</input>
			<output>
				<port id="1" names="183" precision="FP32">
					<dim>1</dim>
					<dim>64</dim>
					<dim>16</dim>
					<dim>64</dim>
				</port>
			</output>
		</layer>
		<layer id="6" name="MaxPool_3" type="MaxPool" version="opset1">
			<data auto_pad="explicit" kernel="3, 3" pads_begin="1, 1" pads_end="1, 1" rounding_type="floor" strides="2, 2"/>
			<input>
				<port id="0" precision="FP32">
					<dim>1</dim>
					<dim>64</dim>
					<dim>16</dim>
					<dim>64</dim>
				</port>
			</input>
			<output>
				<port id="1" names="184" precision="FP32">
					<dim>1</dim>
					<dim>64</dim>
					<dim>8</dim>
					<dim>32</dim>
				</port>
			</output>
		</layer>
		<layer id="7" name="BatchNormalization_5/mean/Fused_Mul__copy" type="Const" version="opset1">
			<data element_type="f32" offset="12800" shape="256, 64, 1, 1" size="65536"/>
			<output>
				<port id="0" names="backbone.layer1.0.conv1.weight" precision="FP32">
					<dim>256</dim>
					<dim>64</dim>
					<dim>1</dim>
					<dim>1</dim>
				</port>
			</output>
		</layer>
		<layer id="8" name="Conv_4" type="Convolution" version="opset1">
			<data auto_pad="explicit" dilations="1, 1" pads_begin="0, 0" pads_end="0, 0" strides="1, 1"/>
			<input>
				<port id="0" precision="FP32">
					<dim>1</dim>
					<dim>64</dim>
					<dim>8</dim>
					<dim>32</dim>
				</port>
				<port id="1" precision="FP32">
					<dim>256</dim>
					<dim>64</dim>
					<dim>1</dim>
					<dim>1</dim>
				</port>
			</input>
			<output>
				<port id="2" precision="FP32">
					<dim>1</dim>
					<dim>256</dim>
					<dim>8</dim>
					<dim>32</dim>
				</port>
			</output>
		</layer>
		<layer id="9" name="data_add_68586863" type="Const" version="opset1">
			<data element_type="f32" offset="78336" shape="1, 256, 1, 1" size="1024"/>
			<output>
				<port id="0" precision="FP32">
					<dim>1</dim>
					<dim>256</dim>
					<dim>1</dim>
					<dim>1</dim>
				</port>
			</output>
		</layer>
		<layer id="10" name="BatchNormalization_5/variance/Fused_Add_" type="Add" version="opset1">
			<data auto_broadcast="numpy"/>
			<input>
				<port id="0" precision="FP32">
					<dim>1</dim>
					<dim>256</dim>
					<dim>8</dim>
					<dim>32</dim>
				</port>
				<port id="1" precision="FP32">
					<dim>1</dim>
					<dim>256</dim>
					<dim>1</dim>
					<dim>1</dim>
				</port>
			</input>
			<output>
				<port id="2" names="186" precision="FP32">
					<dim>1</dim>
					<dim>256</dim>
					<dim>8</dim>
					<dim>32</dim>
				</port>
			</output>
		</layer>
		<layer id="11" name="Relu_6" type="ReLU" version="opset1">
			<input>
				<port id="0" precision="FP32">
					<dim>1</dim>
					<dim>256</dim>
					<dim>8</dim>
					<dim>32</dim>
				</port>
			</input>
			<output>
				<port id="1" names="187" precision="FP32">
					<dim>1</dim>
					<dim>256</dim>
					<dim>8</dim>
					<dim>32</dim>
				</port>
			</output>
		</layer>
		<layer id="12" name="BatchNormalization_8/mean/Fused_Mul__copy" type="Const" version="opset1">
			<data element_type="f32" offset="79360" shape="32, 8, 8, 3, 3" size="73728"/>
			<output>
				<port id="0" names="backbone.layer1.0.conv2.weight" precision="FP32">
					<dim>32</dim>
					<dim>8</dim>
					<dim>8</dim>
					<dim>3</dim>
					<dim>3</dim>
				</port>
			</output>
		</layer>
		<layer id="13" name="Conv_7" type="GroupConvolution" version="opset1">
			<data auto_pad="explicit" dilations="1, 1" pads_begin="1, 1" pads_end="1, 1" strides="1, 1"/>
			<input>
				<port id="0" precision="FP32">
					<dim>1</dim>
					<dim>256</dim>
					<dim>8</dim>
					<dim>32</dim>
				</port>
				<port id="1" precision="FP32">
					<dim>32</dim>
					<dim>8</dim>
					<dim>8</dim>
					<dim>3</dim>
					<dim>3</dim>
				</port>
			</input>
			<output>
				<port id="2" precision="FP32">
					<dim>1</dim>
					<dim>256</dim>
					<dim>8</dim>
					<dim>32</dim>
				</port>
			</output>
		</layer>
		<layer id="14" name="data_add_68666871" type="Const" version="opset1">
			<data element_type="f32" offset="153088" shape="1, 256, 1, 1" size="1024"/>
			<output>
				<port id="0" precision="FP32">
					<dim>1</dim>
					<dim>256</dim>
					<dim>1</dim>
					<dim>1</dim>
				</port>
			</output>
		</layer>
		<layer id="15" name="BatchNormalization_8/variance/Fused_Add_" type="Add" version="opset1">
			<data auto_broadcast="numpy"/>
			<input>
				<port id="0" precision="FP32">
					<dim>1</dim>
					<dim>256</dim>
					<dim>8</dim>
					<dim>32</dim>
				</port>
				<port id="1" precision="FP32">
					<dim>1</dim>
					<dim>256</dim>
					<dim>1</dim>
					<dim>1</dim>
				</port>
			</input>
			<output>
				<port id="2" names="189" precision="FP32">
					<dim>1</dim>
					<dim>256</dim>
					<dim>8</dim>
					<dim>32</dim>
				</port>
			</output>
		</layer>
		<layer id="16" name="Relu_9" type="ReLU" version="opset1">
			<input>
				<port id="0" precision="FP32">
					<dim>1</dim>
					<dim>256</dim>
					<dim>8</dim>
					<dim>32</dim>
				</port>
			</input>
			<output>
				<port id="1" names="190" precision="FP32">
					<dim>1</dim>
					<dim>256</dim>
					<dim>8</dim>
					<dim>32</dim>
				</port>
			</output>
		</layer>
		<layer id="17" name="BatchNormalization_11/mean/Fused_Mul__copy" type="Const" version="opset1">
			<data element_type="f32" offset="154112" shape="256, 256, 1, 1" size="262144"/>
			<output>
				<port id="0" names="backbone.layer1.0.conv3.weight" precision="FP32">
					<dim>256</dim>
					<dim>256</dim>
					<dim>1</dim>
					<dim>1</dim>
				</port>
			</output>
		</layer>
		<layer id="18" name="Conv_10" type="Convolution" version="opset1">
			<data auto_pad="explicit" dilations="1, 1" pads_begin="0, 0" pads_end="0, 0" strides="1, 1"/>
			<input>
				<port id="0" precision="FP32">
					<dim>1</dim>
					<dim>256</dim>
					<dim>8</dim>
					<dim>32</dim>
				</port>
				<port id="1" precision="FP32">
					<dim>256</dim>
					<dim>256</dim>
					<dim>1</dim>
					<dim>1</dim>
				</port>
			</input>
			<output>
				<port id="2" precision="FP32">
					<dim>1</dim>
					<dim>256</dim>
					<dim>8</dim>
					<dim>32</dim>
				</port>
			</output>
		</layer>
		<layer id="19" name="data_add_68746879" type="Const" version="opset1">
			<data element_type="f32" offset="416256" shape="1, 256, 1, 1" size="1024"/>
			<output>
				<port id="0" precision="FP32">
					<dim>1</dim>
					<dim>256</dim>
					<dim>1</dim>
					<dim>1</dim>
				</port>
			</output>
		</layer>
		<layer id="20" name="BatchNormalization_11/variance/Fused_Add_" type="Add" version="opset1">
			<data auto_broadcast="numpy"/>
			<input>
				<port id="0" precision="FP32">
					<dim>1</dim>
					<dim>256</dim>
					<dim>8</dim>
					<dim>32</dim>
				</port>
				<port id="1" precision="FP32">
					<dim>1</dim>
					<dim>256</dim>
					<dim>1</dim>
					<dim>1</dim>
				</port>
			</input>
			<output>
				<port id="2" names="192" precision="FP32">
					<dim>1</dim>
					<dim>256</dim>
					<dim>8</dim>
					<dim>32</dim>
				</port>
			</output>
		</layer>
		<layer id="21" name="BatchNormalization_13/mean/Fused_Mul__copy" type="Const" version="opset1">
			<data element_type="f32" offset="417280" shape="256, 64, 1, 1" size="65536"/>
			<output>
				<port id="0" names="backbone.layer1.0.downsample.0.weight" precision="FP32">
					<dim>256</dim>
					<dim>64</dim>
					<dim>1</dim>
					<dim>1</dim>
				</port>
			</output>
		</layer>
		<layer id="22" name="Conv_12" type="Convolution" version="opset1">
			<data auto_pad="explicit" dilations="1, 1" pads_begin="0, 0" pads_end="0, 0" strides="1, 1"/>
			<input>
				<port id="0" precision="FP32">
					<dim>1</dim>
					<dim>64</dim>
					<dim>8</dim>
					<dim>32</dim>
				</port>
				<port id="1" precision="FP32">
					<dim>256</dim>
					<dim>64</dim>
					<dim>1</dim>
					<dim>1</dim>
				</port>
			</input>
			<output>
				<port id="2" precision="FP32">
					<dim>1</dim>
					<dim>256</dim>
					<dim>8</dim>
					<dim>32</dim>
				</port>
			</output>
		</layer>
		<layer id="23" name="data_add_68506855" type="Const" version="opset1">
			<data element_type="f32" offset="482816" shape="1, 256, 1, 1" size="1024"/>
			<output>
				<port id="0" precision="FP32">
					<dim>1</dim>
					<dim>256</dim>
					<dim>1</dim>
					<dim>1</dim>
				</port>
			</output>
		</layer>
		<layer id="24" name="BatchNormalization_13/variance/Fused_Add_" type="Add" version="opset1">
			<data auto_broadcast="numpy"/>
			<input>
				<port id="0" precision="FP32">
					<dim>1</dim>
					<dim>256</dim>
					<dim>8</dim>
					<dim>32</dim>
				</port>
				<port id="1" precision="FP32">
					<dim>1</dim>
					<dim>256</dim>
					<dim>1</dim>
					<dim>1</dim>
				</port>
			</input>
			<output>
				<port id="2" names="194" precision="FP32">
					<dim>1</dim>
					<dim>256</dim>
					<dim>8</dim>
					<dim>32</dim>
				</port>
			</output>
		</layer>
		<layer id="25" name="Add_14" type="Add" version="opset1">
			<data auto_broadcast="numpy"/>
			<input>
				<port id="0" precision="FP32">
					<dim>1</dim>
					<dim>256</dim>
					<dim>8</dim>
					<dim>32</dim>
				</port>
				<port id="1" precision="FP32">
					<dim>1</dim>
					<dim>256</dim>
					<dim>8</dim>
					<dim>32</dim>
				</port>
			</input>
			<output>
				<port id="2" names="195" precision="FP32">
					<dim>1</dim>
					<dim>256</dim>
					<dim>8</dim>
					<dim>32</dim>
				</port>
			</output>
		</layer>
		<layer id="26" name="Relu_15" type="ReLU" version="opset1">
			<input>
				<port id="0" precision="FP32">
					<dim>1</dim>
					<dim>256</dim>
					<dim>8</dim>
					<dim>32</dim>
				</port>
			</input>
			<output>
				<port id="1" names="196" precision="FP32">
					<dim>1</dim>
					<dim>256</dim>
					<dim>8</dim>
					<dim>32</dim>
				</port>
			</output>
		</layer>
		<layer id="27" name="BatchNormalization_17/mean/Fused_Mul__copy" type="Const" version="opset1">
			<data element_type="f32" offset="483840" shape="256, 256, 1, 1" size="262144"/>
			<output>
				<port id="0" names="backbone.layer1.1.conv1.weight" precision="FP32">
					<dim>256</dim>
					<dim>256</dim>
					<dim>1</dim>
					<dim>1</dim>
				</port>
			</output>
		</layer>
		<layer id="28" name="Conv_16" type="Convolution" version="opset1">
			<data auto_pad="explicit" dilations="1, 1" pads_begin="0, 0" pads_end="0, 0" strides="1, 1"/>
			<input>
				<port id="0" precision="FP32">
					<dim>1</dim>
					<dim>256</dim>
					<dim>8</dim>
					<dim>32</dim>
				</port>
				<port id="1" precision="FP32">
					<dim>256</dim>
					<dim>256</dim>
					<dim>1</dim>
					<dim>1</dim>
				</port>
			</input>
			<output>
				<port id="2" precision="FP32">
					<dim>1</dim>
					<dim>256</dim>
					<dim>8</dim>
					<dim>32</dim>
				</port>
			</output>
		</layer>
		<layer id="29" name="data_add_68826887" type="Const" version="opset1">
			<data element_type="f32" offset="745984" shape="1, 256, 1, 1" size="1024"/>
			<output>
				<port id="0" precision="FP32">
					<dim>1</dim>
					<dim>256</dim>
					<dim>1</dim>
					<dim>1</dim>
				</port>
			</output>
		</layer>
		<layer id="30" name="BatchNormalization_17/variance/Fused_Add_" type="Add" version="opset1">
			<data auto_broadcast="numpy"/>
			<input>
				<port id="0" precision="FP32">
					<dim>1</dim>
					<dim>256</dim>
					<dim>8</dim>
					<dim>32</dim>
				</port>
				<port id="1" precision="FP32">
					<dim>1</dim>
					<dim>256</dim>
					<dim>1</dim>
					<dim>1</dim>
				</port>
			</input>
			<output>
				<port id="2" names="198" precision="FP32">
					<dim>1</dim>
					<dim>256</dim>
					<dim>8</dim>
					<dim>32</dim>
				</port>
			</output>
		</layer>
		<layer id="31" name="Relu_18" type="ReLU" version="opset1">
			<input>
				<port id="0" precision="FP32">
					<dim>1</dim>
					<dim>256</dim>
					<dim>8</dim>
					<dim>32</dim>
				</port>
			</input>
			<output>
				<port id="1" names="199" precision="FP32">
					<dim>1</dim>
					<dim>256</dim>
					<dim>8</dim>
					<dim>32</dim>
				</port>
			</output>
		</layer>
		<layer id="32" name="BatchNormalization_20/mean/Fused_Mul__copy" type="Const" version="opset1">
			<data element_type="f32" offset="747008" shape="32, 8, 8, 3, 3" size="73728"/>
			<output>
				<port id="0" names="backbone.layer1.1.conv2.weight" precision="FP32">
					<dim>32</dim>
					<dim>8</dim>
					<dim>8</dim>
					<dim>3</dim>
					<dim>3</dim>
				</port>
			</output>
		</layer>
		<layer id="33" name="Conv_19" type="GroupConvolution" version="opset1">
			<data auto_pad="explicit" dilations="1, 1" pads_begin="1, 1" pads_end="1, 1" strides="1, 1"/>
			<input>
				<port id="0" precision="FP32">
					<dim>1</dim>
					<dim>256</dim>
					<dim>8</dim>
					<dim>32</dim>
				</port>
				<port id="1" precision="FP32">
					<dim>32</dim>
					<dim>8</dim>
					<dim>8</dim>
					<dim>3</dim>
					<dim>3</dim>
				</port>
			</input>
			<output>
				<port id="2" precision="FP32">
					<dim>1</dim>
					<dim>256</dim>
					<dim>8</dim>
					<dim>32</dim>
				</port>
			</output>
		</layer>
		<layer id="34" name="data_add_68906895" type="Const" version="opset1">
			<data element_type="f32" offset="820736" shape="1, 256, 1, 1" size="1024"/>
			<output>
				<port id="0" precision="FP32">
					<dim>1</dim>
					<dim>256</dim>
					<dim>1</dim>
					<dim>1</dim>
				</port>
			</output>
		</layer>
		<layer id="35" name="BatchNormalization_20/variance/Fused_Add_" type="Add" version="opset1">
			<data auto_broadcast="numpy"/>
			<input>
				<port id="0" precision="FP32">
					<dim>1</dim>
					<dim>256</dim>
					<dim>8</dim>
					<dim>32</dim>
				</port>
				<port id="1" precision="FP32">
					<dim>1</dim>
					<dim>256</dim>
					<dim>1</dim>
					<dim>1</dim>
				</port>
			</input>
			<output>
				<port id="2" names="201" precision="FP32">
					<dim>1</dim>
					<dim>256</dim>
					<dim>8</dim>
					<dim>32</dim>
				</port>
			</output>
		</layer>
		<layer id="36" name="Relu_21" type="ReLU" version="opset1">
			<input>
				<port id="0" precision="FP32">
					<dim>1</dim>
					<dim>256</dim>
					<dim>8</dim>
					<dim>32</dim>
				</port>
			</input>
			<output>
				<port id="1" names="202" precision="FP32">
					<dim>1</dim>
					<dim>256</dim>
					<dim>8</dim>
					<dim>32</dim>
				</port>
			</output>
		</layer>
		<layer id="37" name="BatchNormalization_23/mean/Fused_Mul__copy" type="Const" version="opset1">
			<data element_type="f32" offset="821760" shape="256, 256, 1, 1" size="262144"/>
			<output>
				<port id="0" names="backbone.layer1.1.conv3.weight" precision="FP32">
					<dim>256</dim>
					<dim>256</dim>
					<dim>1</dim>
					<dim>1</dim>
				</port>
			</output>
		</layer>
		<layer id="38" name="Conv_22" type="Convolution" version="opset1">
			<data auto_pad="explicit" dilations="1, 1" pads_begin="0, 0" pads_end="0, 0" strides="1, 1"/>
			<input>
				<port id="0" precision="FP32">
					<dim>1</dim>
					<dim>256</dim>
					<dim>8</dim>
					<dim>32</dim>
				</port>
				<port id="1" precision="FP32">
					<dim>256</dim>
					<dim>256</dim>
					<dim>1</dim>
					<dim>1</dim>
				</port>
			</input>
			<output>
				<port id="2" precision="FP32">
					<dim>1</dim>
					<dim>256</dim>
					<dim>8</dim>
					<dim>32</dim>
				</port>
			</output>
		</layer>
		<layer id="39" name="data_add_68986903" type="Const" version="opset1">
			<data element_type="f32" offset="1083904" shape="1, 256, 1, 1" size="1024"/>
			<output>
				<port id="0" precision="FP32">
					<dim>1</dim>
					<dim>256</dim>
					<dim>1</dim>
					<dim>1</dim>
				</port>
			</output>
		</layer>
		<layer id="40" name="BatchNormalization_23/variance/Fused_Add_" type="Add" version="opset1">
			<data auto_broadcast="numpy"/>
			<input>
				<port id="0" precision="FP32">
					<dim>1</dim>
					<dim>256</dim>
					<dim>8</dim>
					<dim>32</dim>
				</port>
				<port id="1" precision="FP32">
					<dim>1</dim>
					<dim>256</dim>
					<dim>1</dim>
					<dim>1</dim>
				</port>
			</input>
			<output>
				<port id="2" names="204" precision="FP32">
					<dim>1</dim>
					<dim>256</dim>
					<dim>8</dim>
					<dim>32</dim>
				</port>
			</output>
		</layer>
		<layer id="41" name="Add_24" type="Add" version="opset1">
			<data auto_broadcast="numpy"/>
			<input>
				<port id="0" precision="FP32">
					<dim>1</dim>
					<dim>256</dim>
					<dim>8</dim>
					<dim>32</dim>
				</port>
				<port id="1" precision="FP32">
					<dim>1</dim>
					<dim>256</dim>
					<dim>8</dim>
					<dim>32</dim>
				</port>
			</input>
			<output>
				<port id="2" names="205" precision="FP32">
					<dim>1</dim>
					<dim>256</dim>
					<dim>8</dim>
					<dim>32</dim>
				</port>
			</output>
		</layer>
		<layer id="42" name="Relu_25" type="ReLU" version="opset1">
			<input>
				<port id="0" precision="FP32">
					<dim>1</dim>
					<dim>256</dim>
					<dim>8</dim>
					<dim>32</dim>
				</port>
			</input>
			<output>
				<port id="1" names="206" precision="FP32">
					<dim>1</dim>
					<dim>256</dim>
					<dim>8</dim>
					<dim>32</dim>
				</port>
			</output>
		</layer>
		<layer id="43" name="BatchNormalization_27/mean/Fused_Mul__copy" type="Const" version="opset1">
			<data element_type="f32" offset="1084928" shape="256, 256, 1, 1" size="262144"/>
			<output>
				<port id="0" names="backbone.layer1.2.conv1.weight" precision="FP32">
					<dim>256</dim>
					<dim>256</dim>
					<dim>1</dim>
					<dim>1</dim>
				</port>
			</output>
		</layer>
		<layer id="44" name="Conv_26" type="Convolution" version="opset1">
			<data auto_pad="explicit" dilations="1, 1" pads_begin="0, 0" pads_end="0, 0" strides="1, 1"/>
			<input>
				<port id="0" precision="FP32">
					<dim>1</dim>
					<dim>256</dim>
					<dim>8</dim>
					<dim>32</dim>
				</port>
				<port id="1" precision="FP32">
					<dim>256</dim>
					<dim>256</dim>
					<dim>1</dim>
					<dim>1</dim>
				</port>
			</input>
			<output>
				<port id="2" precision="FP32">
					<dim>1</dim>
					<dim>256</dim>
					<dim>8</dim>
					<dim>32</dim>
				</port>
			</output>
		</layer>
		<layer id="45" name="data_add_69066911" type="Const" version="opset1">
			<data element_type="f32" offset="1347072" shape="1, 256, 1, 1" size="1024"/>
			<output>
				<port id="0" precision="FP32">
					<dim>1</dim>
					<dim>256</dim>
					<dim>1</dim>
					<dim>1</dim>
				</port>
			</output>
		</layer>
		<layer id="46" name="BatchNormalization_27/variance/Fused_Add_" type="Add" version="opset1">
			<data auto_broadcast="numpy"/>
			<input>
				<port id="0" precision="FP32">
					<dim>1</dim>
					<dim>256</dim>
					<dim>8</dim>
					<dim>32</dim>
				</port>
				<port id="1" precision="FP32">
					<dim>1</dim>
					<dim>256</dim>
					<dim>1</dim>
					<dim>1</dim>
				</port>
			</input>
			<output>
				<port id="2" names="208" precision="FP32">
					<dim>1</dim>
					<dim>256</dim>
					<dim>8</dim>
					<dim>32</dim>
				</port>
			</output>
		</layer>
		<layer id="47" name="Relu_28" type="ReLU" version="opset1">
			<input>
				<port id="0" precision="FP32">
					<dim>1</dim>
					<dim>256</dim>
					<dim>8</dim>
					<dim>32</dim>
				</port>
			</input>
			<output>
				<port id="1" names="209" precision="FP32">
					<dim>1</dim>
					<dim>256</dim>
					<dim>8</dim>
					<dim>32</dim>
				</port>
			</output>
		</layer>
		<layer id="48" name="BatchNormalization_30/mean/Fused_Mul__copy" type="Const" version="opset1">
			<data element_type="f32" offset="1348096" shape="32, 8, 8, 3, 3" size="73728"/>
			<output>
				<port id="0" names="backbone.layer1.2.conv2.weight" precision="FP32">
					<dim>32</dim>
					<dim>8</dim>
					<dim>8</dim>
					<dim>3</dim>
					<dim>3</dim>
				</port>
			</output>
		</layer>
		<layer id="49" name="Conv_29" type="GroupConvolution" version="opset1">
			<data auto_pad="explicit" dilations="1, 1" pads_begin="1, 1" pads_end="1, 1" strides="1, 1"/>
			<input>
				<port id="0" precision="FP32">
					<dim>1</dim>
					<dim>256</dim>
					<dim>8</dim>
					<dim>32</dim>
				</port>
				<port id="1" precision="FP32">
					<dim>32</dim>
					<dim>8</dim>
					<dim>8</dim>
					<dim>3</dim>
					<dim>3</dim>
				</port>
			</input>
			<output>
				<port id="2" precision="FP32">
					<dim>1</dim>
					<dim>256</dim>
					<dim>8</dim>
					<dim>32</dim>
				</port>
			</output>
		</layer>
		<layer id="50" name="data_add_69146919" type="Const" version="opset1">
			<data element_type="f32" offset="1421824" shape="1, 256, 1, 1" size="1024"/>
			<output>
				<port id="0" precision="FP32">
					<dim>1</dim>
					<dim>256</dim>
					<dim>1</dim>
					<dim>1</dim>
				</port>
			</output>
		</layer>
		<layer id="51" name="BatchNormalization_30/variance/Fused_Add_" type="Add" version="opset1">
			<data auto_broadcast="numpy"/>
			<input>
				<port id="0" precision="FP32">
					<dim>1</dim>
					<dim>256</dim>
					<dim>8</dim>
					<dim>32</dim>
				</port>
				<port id="1" precision="FP32">
					<dim>1</dim>
					<dim>256</dim>
					<dim>1</dim>
					<dim>1</dim>
				</port>
			</input>
			<output>
				<port id="2" names="211" precision="FP32">
					<dim>1</dim>
					<dim>256</dim>
					<dim>8</dim>
					<dim>32</dim>
				</port>
			</output>
		</layer>
		<layer id="52" name="Relu_31" type="ReLU" version="opset1">
			<input>
				<port id="0" precision="FP32">
					<dim>1</dim>
					<dim>256</dim>
					<dim>8</dim>
					<dim>32</dim>
				</port>
			</input>
			<output>
				<port id="1" names="212" precision="FP32">
					<dim>1</dim>
					<dim>256</dim>
					<dim>8</dim>
					<dim>32</dim>
				</port>
			</output>
		</layer>
		<layer id="53" name="BatchNormalization_33/mean/Fused_Mul__copy" type="Const" version="opset1">
			<data element_type="f32" offset="1422848" shape="256, 256, 1, 1" size="262144"/>
			<output>
				<port id="0" names="backbone.layer1.2.conv3.weight" precision="FP32">
					<dim>256</dim>
					<dim>256</dim>
					<dim>1</dim>
					<dim>1</dim>
				</port>
			</output>
		</layer>
		<layer id="54" name="Conv_32" type="Convolution" version="opset1">
			<data auto_pad="explicit" dilations="1, 1" pads_begin="0, 0" pads_end="0, 0" strides="1, 1"/>
			<input>
				<port id="0" precision="FP32">
					<dim>1</dim>
					<dim>256</dim>
					<dim>8</dim>
					<dim>32</dim>
				</port>
				<port id="1" precision="FP32">
					<dim>256</dim>
					<dim>256</dim>
					<dim>1</dim>
					<dim>1</dim>
				</port>
			</input>
			<output>
				<port id="2" precision="FP32">
					<dim>1</dim>
					<dim>256</dim>
					<dim>8</dim>
					<dim>32</dim>
				</port>
			</output>
		</layer>
		<layer id="55" name="data_add_69226927" type="Const" version="opset1">
			<data element_type="f32" offset="1684992" shape="1, 256, 1, 1" size="1024"/>
			<output>
				<port id="0" precision="FP32">
					<dim>1</dim>
					<dim>256</dim>
					<dim>1</dim>
					<dim>1</dim>
				</port>
			</output>
		</layer>
		<layer id="56" name="BatchNormalization_33/variance/Fused_Add_" type="Add" version="opset1">
			<data auto_broadcast="numpy"/>
			<input>
				<port id="0" precision="FP32">
					<dim>1</dim>
					<dim>256</dim>
					<dim>8</dim>
					<dim>32</dim>
				</port>
				<port id="1" precision="FP32">
					<dim>1</dim>
					<dim>256</dim>
					<dim>1</dim>
					<dim>1</dim>
				</port>
			</input>
			<output>
				<port id="2" names="214" precision="FP32">
					<dim>1</dim>
					<dim>256</dim>
					<dim>8</dim>
					<dim>32</dim>
				</port>
			</output>
		</layer>
		<layer id="57" name="Add_34" type="Add" version="opset1">
			<data auto_broadcast="numpy"/>
			<input>
				<port id="0" precision="FP32">
					<dim>1</dim>
					<dim>256</dim>
					<dim>8</dim>
					<dim>32</dim>
				</port>
				<port id="1" precision="FP32">
					<dim>1</dim>
					<dim>256</dim>
					<dim>8</dim>
					<dim>32</dim>
				</port>
			</input>
			<output>
				<port id="2" names="215" precision="FP32">
					<dim>1</dim>
					<dim>256</dim>
					<dim>8</dim>
					<dim>32</dim>
				</port>
			</output>
		</layer>
		<layer id="58" name="Relu_35" type="ReLU" version="opset1">
			<input>
				<port id="0" precision="FP32">
					<dim>1</dim>
					<dim>256</dim>
					<dim>8</dim>
					<dim>32</dim>
				</port>
			</input>
			<output>
				<port id="1" names="216" precision="FP32">
					<dim>1</dim>
					<dim>256</dim>
					<dim>8</dim>
					<dim>32</dim>
				</port>
			</output>
		</layer>
		<layer id="59" name="BatchNormalization_37/mean/Fused_Mul__copy" type="Const" version="opset1">
			<data element_type="f32" offset="1686016" shape="512, 256, 1, 1" size="524288"/>
			<output>
				<port id="0" names="backbone.layer2.0.conv1.weight" precision="FP32">
					<dim>512</dim>
					<dim>256</dim>
					<dim>1</dim>
					<dim>1</dim>
				</port>
			</output>
		</layer>
		<layer id="60" name="Conv_36" type="Convolution" version="opset1">
			<data auto_pad="explicit" dilations="1, 1" pads_begin="0, 0" pads_end="0, 0" strides="1, 1"/>
			<input>
				<port id="0" precision="FP32">
					<dim>1</dim>
					<dim>256</dim>
					<dim>8</dim>
					<dim>32</dim>
				</port>
				<port id="1" precision="FP32">
					<dim>512</dim>
					<dim>256</dim>
					<dim>1</dim>
					<dim>1</dim>
				</port>
			</input>
			<output>
				<port id="2" precision="FP32">
					<dim>1</dim>
					<dim>512</dim>
					<dim>8</dim>
					<dim>32</dim>
				</port>
			</output>
		</layer>
		<layer id="61" name="data_add_69386943" type="Const" version="opset1">
			<data element_type="f32" offset="2210304" shape="1, 512, 1, 1" size="2048"/>
			<output>
				<port id="0" precision="FP32">
					<dim>1</dim>
					<dim>512</dim>
					<dim>1</dim>
					<dim>1</dim>
				</port>
			</output>
		</layer>
		<layer id="62" name="BatchNormalization_37/variance/Fused_Add_" type="Add" version="opset1">
			<data auto_broadcast="numpy"/>
			<input>
				<port id="0" precision="FP32">
					<dim>1</dim>
					<dim>512</dim>
					<dim>8</dim>
					<dim>32</dim>
				</port>
				<port id="1" precision="FP32">
					<dim>1</dim>
					<dim>512</dim>
					<dim>1</dim>
					<dim>1</dim>
				</port>
			</input>
			<output>
				<port id="2" names="218" precision="FP32">
					<dim>1</dim>
					<dim>512</dim>
					<dim>8</dim>
					<dim>32</dim>
				</port>
			</output>
		</layer>
		<layer id="63" name="Relu_38" type="ReLU" version="opset1">
			<input>
				<port id="0" precision="FP32">
					<dim>1</dim>
					<dim>512</dim>
					<dim>8</dim>
					<dim>32</dim>
				</port>
			</input>
			<output>
				<port id="1" names="219" precision="FP32">
					<dim>1</dim>
					<dim>512</dim>
					<dim>8</dim>
					<dim>32</dim>
				</port>
			</output>
		</layer>
		<layer id="64" name="BatchNormalization_40/mean/Fused_Mul__copy" type="Const" version="opset1">
			<data element_type="f32" offset="2212352" shape="32, 16, 16, 3, 3" size="294912"/>
			<output>
				<port id="0" names="backbone.layer2.0.conv2.weight" precision="FP32">
					<dim>32</dim>
					<dim>16</dim>
					<dim>16</dim>
					<dim>3</dim>
					<dim>3</dim>
				</port>
			</output>
		</layer>
		<layer id="65" name="Conv_39" type="GroupConvolution" version="opset1">
			<data auto_pad="explicit" dilations="1, 1" pads_begin="1, 1" pads_end="1, 1" strides="2, 2"/>
			<input>
				<port id="0" precision="FP32">
					<dim>1</dim>
					<dim>512</dim>
					<dim>8</dim>
					<dim>32</dim>
				</port>
				<port id="1" precision="FP32">
					<dim>32</dim>
					<dim>16</dim>
					<dim>16</dim>
					<dim>3</dim>
					<dim>3</dim>
				</port>
			</input>
			<output>
				<port id="2" precision="FP32">
					<dim>1</dim>
					<dim>512</dim>
					<dim>4</dim>
					<dim>16</dim>
				</port>
			</output>
		</layer>
		<layer id="66" name="data_add_69466951" type="Const" version="opset1">
			<data element_type="f32" offset="2507264" shape="1, 512, 1, 1" size="2048"/>
			<output>
				<port id="0" precision="FP32">
					<dim>1</dim>
					<dim>512</dim>
					<dim>1</dim>
					<dim>1</dim>
				</port>
			</output>
		</layer>
		<layer id="67" name="BatchNormalization_40/variance/Fused_Add_" type="Add" version="opset1">
			<data auto_broadcast="numpy"/>
			<input>
				<port id="0" precision="FP32">
					<dim>1</dim>
					<dim>512</dim>
					<dim>4</dim>
					<dim>16</dim>
				</port>
				<port id="1" precision="FP32">
					<dim>1</dim>
					<dim>512</dim>
					<dim>1</dim>
					<dim>1</dim>
				</port>
			</input>
			<output>
				<port id="2" names="221" precision="FP32">
					<dim>1</dim>
					<dim>512</dim>
					<dim>4</dim>
					<dim>16</dim>
				</port>
			</output>
		</layer>
		<layer id="68" name="Relu_41" type="ReLU" version="opset1">
			<input>
				<port id="0" precision="FP32">
					<dim>1</dim>
					<dim>512</dim>
					<dim>4</dim>
					<dim>16</dim>
				</port>
			</input>
			<output>
				<port id="1" names="222" precision="FP32">
					<dim>1</dim>
					<dim>512</dim>
					<dim>4</dim>
					<dim>16</dim>
				</port>
			</output>
		</layer>
		<layer id="69" name="BatchNormalization_43/mean/Fused_Mul__copy" type="Const" version="opset1">
			<data element_type="f32" offset="2509312" shape="512, 512, 1, 1" size="1048576"/>
			<output>
				<port id="0" names="backbone.layer2.0.conv3.weight" precision="FP32">
					<dim>512</dim>
					<dim>512</dim>
					<dim>1</dim>
					<dim>1</dim>
				</port>
			</output>
		</layer>
		<layer id="70" name="Conv_42" type="Convolution" version="opset1">
			<data auto_pad="explicit" dilations="1, 1" pads_begin="0, 0" pads_end="0, 0" strides="1, 1"/>
			<input>
				<port id="0" precision="FP32">
					<dim>1</dim>
					<dim>512</dim>
					<dim>4</dim>
					<dim>16</dim>
				</port>
				<port id="1" precision="FP32">
					<dim>512</dim>
					<dim>512</dim>
					<dim>1</dim>
					<dim>1</dim>
				</port>
			</input>
			<output>
				<port id="2" precision="FP32">
					<dim>1</dim>
					<dim>512</dim>
					<dim>4</dim>
					<dim>16</dim>
				</port>
			</output>
		</layer>
		<layer id="71" name="data_add_69546959" type="Const" version="opset1">
			<data element_type="f32" offset="3557888" shape="1, 512, 1, 1" size="2048"/>
			<output>
				<port id="0" precision="FP32">
					<dim>1</dim>
					<dim>512</dim>
					<dim>1</dim>
					<dim>1</dim>
				</port>
			</output>
		</layer>
		<layer id="72" name="BatchNormalization_43/variance/Fused_Add_" type="Add" version="opset1">
			<data auto_broadcast="numpy"/>
			<input>
				<port id="0" precision="FP32">
					<dim>1</dim>
					<dim>512</dim>
					<dim>4</dim>
					<dim>16</dim>
				</port>
				<port id="1" precision="FP32">
					<dim>1</dim>
					<dim>512</dim>
					<dim>1</dim>
					<dim>1</dim>
				</port>
			</input>
			<output>
				<port id="2" names="224" precision="FP32">
					<dim>1</dim>
					<dim>512</dim>
					<dim>4</dim>
					<dim>16</dim>
				</port>
			</output>
		</layer>
		<layer id="73" name="BatchNormalization_45/mean/Fused_Mul__copy" type="Const" version="opset1">
			<data element_type="f32" offset="3559936" shape="512, 256, 1, 1" size="524288"/>
			<output>
				<port id="0" names="backbone.layer2.0.downsample.0.weight" precision="FP32">
					<dim>512</dim>
					<dim>256</dim>
					<dim>1</dim>
					<dim>1</dim>
				</port>
			</output>
		</layer>
		<layer id="74" name="Conv_44" type="Convolution" version="opset1">
			<data auto_pad="explicit" dilations="1, 1" pads_begin="0, 0" pads_end="0, 0" strides="2, 2"/>
			<input>
				<port id="0" precision="FP32">
					<dim>1</dim>
					<dim>256</dim>
					<dim>8</dim>
					<dim>32</dim>
				</port>
				<port id="1" precision="FP32">
					<dim>512</dim>
					<dim>256</dim>
					<dim>1</dim>
					<dim>1</dim>
				</port>
			</input>
			<output>
				<port id="2" precision="FP32">
					<dim>1</dim>
					<dim>512</dim>
					<dim>4</dim>
					<dim>16</dim>
				</port>
			</output>
		</layer>
		<layer id="75" name="data_add_69306935" type="Const" version="opset1">
			<data element_type="f32" offset="4084224" shape="1, 512, 1, 1" size="2048"/>
			<output>
				<port id="0" precision="FP32">
					<dim>1</dim>
					<dim>512</dim>
					<dim>1</dim>
					<dim>1</dim>
				</port>
			</output>
		</layer>
		<layer id="76" name="BatchNormalization_45/variance/Fused_Add_" type="Add" version="opset1">
			<data auto_broadcast="numpy"/>
			<input>
				<port id="0" precision="FP32">
					<dim>1</dim>
					<dim>512</dim>
					<dim>4</dim>
					<dim>16</dim>
				</port>
				<port id="1" precision="FP32">
					<dim>1</dim>
					<dim>512</dim>
					<dim>1</dim>
					<dim>1</dim>
				</port>
			</input>
			<output>
				<port id="2" names="226" precision="FP32">
					<dim>1</dim>
					<dim>512</dim>
					<dim>4</dim>
					<dim>16</dim>
				</port>
			</output>
		</layer>
		<layer id="77" name="Add_46" type="Add" version="opset1">
			<data auto_broadcast="numpy"/>
			<input>
				<port id="0" precision="FP32">
					<dim>1</dim>
					<dim>512</dim>
					<dim>4</dim>
					<dim>16</dim>
				</port>
				<port id="1" precision="FP32">
					<dim>1</dim>
					<dim>512</dim>
					<dim>4</dim>
					<dim>16</dim>
				</port>
			</input>
			<output>
				<port id="2" names="227" precision="FP32">
					<dim>1</dim>
					<dim>512</dim>
					<dim>4</dim>
					<dim>16</dim>
				</port>
			</output>
		</layer>
		<layer id="78" name="Relu_47" type="ReLU" version="opset1">
			<input>
				<port id="0" precision="FP32">
					<dim>1</dim>
					<dim>512</dim>
					<dim>4</dim>
					<dim>16</dim>
				</port>
			</input>
			<output>
				<port id="1" names="228" precision="FP32">
					<dim>1</dim>
					<dim>512</dim>
					<dim>4</dim>
					<dim>16</dim>
				</port>
			</output>
		</layer>
		<layer id="79" name="BatchNormalization_49/mean/Fused_Mul__copy" type="Const" version="opset1">
			<data element_type="f32" offset="4086272" shape="512, 512, 1, 1" size="1048576"/>
			<output>
				<port id="0" names="backbone.layer2.1.conv1.weight" precision="FP32">
					<dim>512</dim>
					<dim>512</dim>
					<dim>1</dim>
					<dim>1</dim>
				</port>
			</output>
		</layer>
		<layer id="80" name="Conv_48" type="Convolution" version="opset1">
			<data auto_pad="explicit" dilations="1, 1" pads_begin="0, 0" pads_end="0, 0" strides="1, 1"/>
			<input>
				<port id="0" precision="FP32">
					<dim>1</dim>
					<dim>512</dim>
					<dim>4</dim>
					<dim>16</dim>
				</port>
				<port id="1" precision="FP32">
					<dim>512</dim>
					<dim>512</dim>
					<dim>1</dim>
					<dim>1</dim>
				</port>
			</input>
			<output>
				<port id="2" precision="FP32">
					<dim>1</dim>
					<dim>512</dim>
					<dim>4</dim>
					<dim>16</dim>
				</port>
			</output>
		</layer>
		<layer id="81" name="data_add_69626967" type="Const" version="opset1">
			<data element_type="f32" offset="5134848" shape="1, 512, 1, 1" size="2048"/>
			<output>
				<port id="0" precision="FP32">
					<dim>1</dim>
					<dim>512</dim>
					<dim>1</dim>
					<dim>1</dim>
				</port>
			</output>
		</layer>
		<layer id="82" name="BatchNormalization_49/variance/Fused_Add_" type="Add" version="opset1">
			<data auto_broadcast="numpy"/>
			<input>
				<port id="0" precision="FP32">
					<dim>1</dim>
					<dim>512</dim>
					<dim>4</dim>
					<dim>16</dim>
				</port>
				<port id="1" precision="FP32">
					<dim>1</dim>
					<dim>512</dim>
					<dim>1</dim>
					<dim>1</dim>
				</port>
			</input>
			<output>
				<port id="2" names="230" precision="FP32">
					<dim>1</dim>
					<dim>512</dim>
					<dim>4</dim>
					<dim>16</dim>
				</port>
			</output>
		</layer>
		<layer id="83" name="Relu_50" type="ReLU" version="opset1">
			<input>
				<port id="0" precision="FP32">
					<dim>1</dim>
					<dim>512</dim>
					<dim>4</dim>
					<dim>16</dim>
				</port>
			</input>
			<output>
				<port id="1" names="231" precision="FP32">
					<dim>1</dim>
					<dim>512</dim>
					<dim>4</dim>
					<dim>16</dim>
				</port>
			</output>
		</layer>
		<layer id="84" name="BatchNormalization_52/mean/Fused_Mul__copy" type="Const" version="opset1">
			<data element_type="f32" offset="5136896" shape="32, 16, 16, 3, 3" size="294912"/>
			<output>
				<port id="0" names="backbone.layer2.1.conv2.weight" precision="FP32">
					<dim>32</dim>
					<dim>16</dim>
					<dim>16</dim>
					<dim>3</dim>
					<dim>3</dim>
				</port>
			</output>
		</layer>
		<layer id="85" name="Conv_51" type="GroupConvolution" version="opset1">
			<data auto_pad="explicit" dilations="1, 1" pads_begin="1, 1" pads_end="1, 1" strides="1, 1"/>
			<input>
				<port id="0" precision="FP32">
					<dim>1</dim>
					<dim>512</dim>
					<dim>4</dim>
					<dim>16</dim>
				</port>
				<port id="1" precision="FP32">
					<dim>32</dim>
					<dim>16</dim>
					<dim>16</dim>
					<dim>3</dim>
					<dim>3</dim>
				</port>
			</input>
			<output>
				<port id="2" precision="FP32">
					<dim>1</dim>
					<dim>512</dim>
					<dim>4</dim>
					<dim>16</dim>
				</port>
			</output>
		</layer>
		<layer id="86" name="data_add_69706975" type="Const" version="opset1">
			<data element_type="f32" offset="5431808" shape="1, 512, 1, 1" size="2048"/>
			<output>
				<port id="0" precision="FP32">
					<dim>1</dim>
					<dim>512</dim>
					<dim>1</dim>
					<dim>1</dim>
				</port>
			</output>
		</layer>
		<layer id="87" name="BatchNormalization_52/variance/Fused_Add_" type="Add" version="opset1">
			<data auto_broadcast="numpy"/>
			<input>
				<port id="0" precision="FP32">
					<dim>1</dim>
					<dim>512</dim>
					<dim>4</dim>
					<dim>16</dim>
				</port>
				<port id="1" precision="FP32">
					<dim>1</dim>
					<dim>512</dim>
					<dim>1</dim>
					<dim>1</dim>
				</port>
			</input>
			<output>
				<port id="2" names="233" precision="FP32">
					<dim>1</dim>
					<dim>512</dim>
					<dim>4</dim>
					<dim>16</dim>
				</port>
			</output>
		</layer>
		<layer id="88" name="Relu_53" type="ReLU" version="opset1">
			<input>
				<port id="0" precision="FP32">
					<dim>1</dim>
					<dim>512</dim>
					<dim>4</dim>
					<dim>16</dim>
				</port>
			</input>
			<output>
				<port id="1" names="234" precision="FP32">
					<dim>1</dim>
					<dim>512</dim>
					<dim>4</dim>
					<dim>16</dim>
				</port>
			</output>
		</layer>
		<layer id="89" name="BatchNormalization_55/mean/Fused_Mul__copy" type="Const" version="opset1">
			<data element_type="f32" offset="5433856" shape="512, 512, 1, 1" size="1048576"/>
			<output>
				<port id="0" names="backbone.layer2.1.conv3.weight" precision="FP32">
					<dim>512</dim>
					<dim>512</dim>
					<dim>1</dim>
					<dim>1</dim>
				</port>
			</output>
		</layer>
		<layer id="90" name="Conv_54" type="Convolution" version="opset1">
			<data auto_pad="explicit" dilations="1, 1" pads_begin="0, 0" pads_end="0, 0" strides="1, 1"/>
			<input>
				<port id="0" precision="FP32">
					<dim>1</dim>
					<dim>512</dim>
					<dim>4</dim>
					<dim>16</dim>
				</port>
				<port id="1" precision="FP32">
					<dim>512</dim>
					<dim>512</dim>
					<dim>1</dim>
					<dim>1</dim>
				</port>
			</input>
			<output>
				<port id="2" precision="FP32">
					<dim>1</dim>
					<dim>512</dim>
					<dim>4</dim>
					<dim>16</dim>
				</port>
			</output>
		</layer>
		<layer id="91" name="data_add_69786983" type="Const" version="opset1">
			<data element_type="f32" offset="6482432" shape="1, 512, 1, 1" size="2048"/>
			<output>
				<port id="0" precision="FP32">
					<dim>1</dim>
					<dim>512</dim>
					<dim>1</dim>
					<dim>1</dim>
				</port>
			</output>
		</layer>
		<layer id="92" name="BatchNormalization_55/variance/Fused_Add_" type="Add" version="opset1">
			<data auto_broadcast="numpy"/>
			<input>
				<port id="0" precision="FP32">
					<dim>1</dim>
					<dim>512</dim>
					<dim>4</dim>
					<dim>16</dim>
				</port>
				<port id="1" precision="FP32">
					<dim>1</dim>
					<dim>512</dim>
					<dim>1</dim>
					<dim>1</dim>
				</port>
			</input>
			<output>
				<port id="2" names="236" precision="FP32">
					<dim>1</dim>
					<dim>512</dim>
					<dim>4</dim>
					<dim>16</dim>
				</port>
			</output>
		</layer>
		<layer id="93" name="Add_56" type="Add" version="opset1">
			<data auto_broadcast="numpy"/>
			<input>
				<port id="0" precision="FP32">
					<dim>1</dim>
					<dim>512</dim>
					<dim>4</dim>
					<dim>16</dim>
				</port>
				<port id="1" precision="FP32">
					<dim>1</dim>
					<dim>512</dim>
					<dim>4</dim>
					<dim>16</dim>
				</port>
			</input>
			<output>
				<port id="2" names="237" precision="FP32">
					<dim>1</dim>
					<dim>512</dim>
					<dim>4</dim>
					<dim>16</dim>
				</port>
			</output>
		</layer>
		<layer id="94" name="Relu_57" type="ReLU" version="opset1">
			<input>
				<port id="0" precision="FP32">
					<dim>1</dim>
					<dim>512</dim>
					<dim>4</dim>
					<dim>16</dim>
				</port>
			</input>
			<output>
				<port id="1" names="238" precision="FP32">
					<dim>1</dim>
					<dim>512</dim>
					<dim>4</dim>
					<dim>16</dim>
				</port>
			</output>
		</layer>
		<layer id="95" name="BatchNormalization_59/mean/Fused_Mul__copy" type="Const" version="opset1">
			<data element_type="f32" offset="6484480" shape="512, 512, 1, 1" size="1048576"/>
			<output>
				<port id="0" names="backbone.layer2.2.conv1.weight" precision="FP32">
					<dim>512</dim>
					<dim>512</dim>
					<dim>1</dim>
					<dim>1</dim>
				</port>
			</output>
		</layer>
		<layer id="96" name="Conv_58" type="Convolution" version="opset1">
			<data auto_pad="explicit" dilations="1, 1" pads_begin="0, 0" pads_end="0, 0" strides="1, 1"/>
			<input>
				<port id="0" precision="FP32">
					<dim>1</dim>
					<dim>512</dim>
					<dim>4</dim>
					<dim>16</dim>
				</port>
				<port id="1" precision="FP32">
					<dim>512</dim>
					<dim>512</dim>
					<dim>1</dim>
					<dim>1</dim>
				</port>
			</input>
			<output>
				<port id="2" precision="FP32">
					<dim>1</dim>
					<dim>512</dim>
					<dim>4</dim>
					<dim>16</dim>
				</port>
			</output>
		</layer>
		<layer id="97" name="data_add_69866991" type="Const" version="opset1">
			<data element_type="f32" offset="7533056" shape="1, 512, 1, 1" size="2048"/>
			<output>
				<port id="0" precision="FP32">
					<dim>1</dim>
					<dim>512</dim>
					<dim>1</dim>
					<dim>1</dim>
				</port>
			</output>
		</layer>
		<layer id="98" name="BatchNormalization_59/variance/Fused_Add_" type="Add" version="opset1">
			<data auto_broadcast="numpy"/>
			<input>
				<port id="0" precision="FP32">
					<dim>1</dim>
					<dim>512</dim>
					<dim>4</dim>
					<dim>16</dim>
				</port>
				<port id="1" precision="FP32">
					<dim>1</dim>
					<dim>512</dim>
					<dim>1</dim>
					<dim>1</dim>
				</port>
			</input>
			<output>
				<port id="2" names="240" precision="FP32">
					<dim>1</dim>
					<dim>512</dim>
					<dim>4</dim>
					<dim>16</dim>
				</port>
			</output>
		</layer>
		<layer id="99" name="Relu_60" type="ReLU" version="opset1">
			<input>
				<port id="0" precision="FP32">
					<dim>1</dim>
					<dim>512</dim>
					<dim>4</dim>
					<dim>16</dim>
				</port>
			</input>
			<output>
				<port id="1" names="241" precision="FP32">
					<dim>1</dim>
					<dim>512</dim>
					<dim>4</dim>
					<dim>16</dim>
				</port>
			</output>
		</layer>
		<layer id="100" name="BatchNormalization_62/mean/Fused_Mul__copy" type="Const" version="opset1">
			<data element_type="f32" offset="7535104" shape="32, 16, 16, 3, 3" size="294912"/>
			<output>
				<port id="0" names="backbone.layer2.2.conv2.weight" precision="FP32">
					<dim>32</dim>
					<dim>16</dim>
					<dim>16</dim>
					<dim>3</dim>
					<dim>3</dim>
				</port>
			</output>
		</layer>
		<layer id="101" name="Conv_61" type="GroupConvolution" version="opset1">
			<data auto_pad="explicit" dilations="1, 1" pads_begin="1, 1" pads_end="1, 1" strides="1, 1"/>
			<input>
				<port id="0" precision="FP32">
					<dim>1</dim>
					<dim>512</dim>
					<dim>4</dim>
					<dim>16</dim>
				</port>
				<port id="1" precision="FP32">
					<dim>32</dim>
					<dim>16</dim>
					<dim>16</dim>
					<dim>3</dim>
					<dim>3</dim>
				</port>
			</input>
			<output>
				<port id="2" precision="FP32">
					<dim>1</dim>
					<dim>512</dim>
					<dim>4</dim>
					<dim>16</dim>
				</port>
			</output>
		</layer>
		<layer id="102" name="data_add_69946999" type="Const" version="opset1">
			<data element_type="f32" offset="7830016" shape="1, 512, 1, 1" size="2048"/>
			<output>
				<port id="0" precision="FP32">
					<dim>1</dim>
					<dim>512</dim>
					<dim>1</dim>
					<dim>1</dim>
				</port>
			</output>
		</layer>
		<layer id="103" name="BatchNormalization_62/variance/Fused_Add_" type="Add" version="opset1">
			<data auto_broadcast="numpy"/>
			<input>
				<port id="0" precision="FP32">
					<dim>1</dim>
					<dim>512</dim>
					<dim>4</dim>
					<dim>16</dim>
				</port>
				<port id="1" precision="FP32">
					<dim>1</dim>
					<dim>512</dim>
					<dim>1</dim>
					<dim>1</dim>
				</port>
			</input>
			<output>
				<port id="2" names="243" precision="FP32">
					<dim>1</dim>
					<dim>512</dim>
					<dim>4</dim>
					<dim>16</dim>
				</port>
			</output>
		</layer>
		<layer id="104" name="Relu_63" type="ReLU" version="opset1">
			<input>
				<port id="0" precision="FP32">
					<dim>1</dim>
					<dim>512</dim>
					<dim>4</dim>
					<dim>16</dim>
				</port>
			</input>
			<output>
				<port id="1" names="244" precision="FP32">
					<dim>1</dim>
					<dim>512</dim>
					<dim>4</dim>
					<dim>16</dim>
				</port>
			</output>
		</layer>
		<layer id="105" name="BatchNormalization_65/mean/Fused_Mul__copy" type="Const" version="opset1">
			<data element_type="f32" offset="7832064" shape="512, 512, 1, 1" size="1048576"/>
			<output>
				<port id="0" names="backbone.layer2.2.conv3.weight" precision="FP32">
					<dim>512</dim>
					<dim>512</dim>
					<dim>1</dim>
					<dim>1</dim>
				</port>
			</output>
		</layer>
		<layer id="106" name="Conv_64" type="Convolution" version="opset1">
			<data auto_pad="explicit" dilations="1, 1" pads_begin="0, 0" pads_end="0, 0" strides="1, 1"/>
			<input>
				<port id="0" precision="FP32">
					<dim>1</dim>
					<dim>512</dim>
					<dim>4</dim>
					<dim>16</dim>
				</port>
				<port id="1" precision="FP32">
					<dim>512</dim>
					<dim>512</dim>
					<dim>1</dim>
					<dim>1</dim>
				</port>
			</input>
			<output>
				<port id="2" precision="FP32">
					<dim>1</dim>
					<dim>512</dim>
					<dim>4</dim>
					<dim>16</dim>
				</port>
			</output>
		</layer>
		<layer id="107" name="data_add_70027007" type="Const" version="opset1">
			<data element_type="f32" offset="8880640" shape="1, 512, 1, 1" size="2048"/>
			<output>
				<port id="0" precision="FP32">
					<dim>1</dim>
					<dim>512</dim>
					<dim>1</dim>
					<dim>1</dim>
				</port>
			</output>
		</layer>
		<layer id="108" name="BatchNormalization_65/variance/Fused_Add_" type="Add" version="opset1">
			<data auto_broadcast="numpy"/>
			<input>
				<port id="0" precision="FP32">
					<dim>1</dim>
					<dim>512</dim>
					<dim>4</dim>
					<dim>16</dim>
				</port>
				<port id="1" precision="FP32">
					<dim>1</dim>
					<dim>512</dim>
					<dim>1</dim>
					<dim>1</dim>
				</port>
			</input>
			<output>
				<port id="2" names="246" precision="FP32">
					<dim>1</dim>
					<dim>512</dim>
					<dim>4</dim>
					<dim>16</dim>
				</port>
			</output>
		</layer>
		<layer id="109" name="Add_66" type="Add" version="opset1">
			<data auto_broadcast="numpy"/>
			<input>
				<port id="0" precision="FP32">
					<dim>1</dim>
					<dim>512</dim>
					<dim>4</dim>
					<dim>16</dim>
				</port>
				<port id="1" precision="FP32">
					<dim>1</dim>
					<dim>512</dim>
					<dim>4</dim>
					<dim>16</dim>
				</port>
			</input>
			<output>
				<port id="2" names="247" precision="FP32">
					<dim>1</dim>
					<dim>512</dim>
					<dim>4</dim>
					<dim>16</dim>
				</port>
			</output>
		</layer>
		<layer id="110" name="Relu_67" type="ReLU" version="opset1">
			<input>
				<port id="0" precision="FP32">
					<dim>1</dim>
					<dim>512</dim>
					<dim>4</dim>
					<dim>16</dim>
				</port>
			</input>
			<output>
				<port id="1" names="248" precision="FP32">
					<dim>1</dim>
					<dim>512</dim>
					<dim>4</dim>
					<dim>16</dim>
				</port>
			</output>
		</layer>
		<layer id="111" name="BatchNormalization_69/mean/Fused_Mul__copy" type="Const" version="opset1">
			<data element_type="f32" offset="8882688" shape="512, 512, 1, 1" size="1048576"/>
			<output>
				<port id="0" names="backbone.layer2.3.conv1.weight" precision="FP32">
					<dim>512</dim>
					<dim>512</dim>
					<dim>1</dim>
					<dim>1</dim>
				</port>
			</output>
		</layer>
		<layer id="112" name="Conv_68" type="Convolution" version="opset1">
			<data auto_pad="explicit" dilations="1, 1" pads_begin="0, 0" pads_end="0, 0" strides="1, 1"/>
			<input>
				<port id="0" precision="FP32">
					<dim>1</dim>
					<dim>512</dim>
					<dim>4</dim>
					<dim>16</dim>
				</port>
				<port id="1" precision="FP32">
					<dim>512</dim>
					<dim>512</dim>
					<dim>1</dim>
					<dim>1</dim>
				</port>
			</input>
			<output>
				<port id="2" precision="FP32">
					<dim>1</dim>
					<dim>512</dim>
					<dim>4</dim>
					<dim>16</dim>
				</port>
			</output>
		</layer>
		<layer id="113" name="data_add_70107015" type="Const" version="opset1">
			<data element_type="f32" offset="9931264" shape="1, 512, 1, 1" size="2048"/>
			<output>
				<port id="0" precision="FP32">
					<dim>1</dim>
					<dim>512</dim>
					<dim>1</dim>
					<dim>1</dim>
				</port>
			</output>
		</layer>
		<layer id="114" name="BatchNormalization_69/variance/Fused_Add_" type="Add" version="opset1">
			<data auto_broadcast="numpy"/>
			<input>
				<port id="0" precision="FP32">
					<dim>1</dim>
					<dim>512</dim>
					<dim>4</dim>
					<dim>16</dim>
				</port>
				<port id="1" precision="FP32">
					<dim>1</dim>
					<dim>512</dim>
					<dim>1</dim>
					<dim>1</dim>
				</port>
			</input>
			<output>
				<port id="2" names="250" precision="FP32">
					<dim>1</dim>
					<dim>512</dim>
					<dim>4</dim>
					<dim>16</dim>
				</port>
			</output>
		</layer>
		<layer id="115" name="Relu_70" type="ReLU" version="opset1">
			<input>
				<port id="0" precision="FP32">
					<dim>1</dim>
					<dim>512</dim>
					<dim>4</dim>
					<dim>16</dim>
				</port>
			</input>
			<output>
				<port id="1" names="251" precision="FP32">
					<dim>1</dim>
					<dim>512</dim>
					<dim>4</dim>
					<dim>16</dim>
				</port>
			</output>
		</layer>
		<layer id="116" name="BatchNormalization_72/mean/Fused_Mul__copy" type="Const" version="opset1">
			<data element_type="f32" offset="9933312" shape="32, 16, 16, 3, 3" size="294912"/>
			<output>
				<port id="0" names="backbone.layer2.3.conv2.weight" precision="FP32">
					<dim>32</dim>
					<dim>16</dim>
					<dim>16</dim>
					<dim>3</dim>
					<dim>3</dim>
				</port>
			</output>
		</layer>
		<layer id="117" name="Conv_71" type="GroupConvolution" version="opset1">
			<data auto_pad="explicit" dilations="1, 1" pads_begin="1, 1" pads_end="1, 1" strides="1, 1"/>
			<input>
				<port id="0" precision="FP32">
					<dim>1</dim>
					<dim>512</dim>
					<dim>4</dim>
					<dim>16</dim>
				</port>
				<port id="1" precision="FP32">
					<dim>32</dim>
					<dim>16</dim>
					<dim>16</dim>
					<dim>3</dim>
					<dim>3</dim>
				</port>
			</input>
			<output>
				<port id="2" precision="FP32">
					<dim>1</dim>
					<dim>512</dim>
					<dim>4</dim>
					<dim>16</dim>
				</port>
			</output>
		</layer>
		<layer id="118" name="data_add_70187023" type="Const" version="opset1">
			<data element_type="f32" offset="10228224" shape="1, 512, 1, 1" size="2048"/>
			<output>
				<port id="0" precision="FP32">
					<dim>1</dim>
					<dim>512</dim>
					<dim>1</dim>
					<dim>1</dim>
				</port>
			</output>
		</layer>
		<layer id="119" name="BatchNormalization_72/variance/Fused_Add_" type="Add" version="opset1">
			<data auto_broadcast="numpy"/>
			<input>
				<port id="0" precision="FP32">
					<dim>1</dim>
					<dim>512</dim>
					<dim>4</dim>
					<dim>16</dim>
				</port>
				<port id="1" precision="FP32">
					<dim>1</dim>
					<dim>512</dim>
					<dim>1</dim>
					<dim>1</dim>
				</port>
			</input>
			<output>
				<port id="2" names="253" precision="FP32">
					<dim>1</dim>
					<dim>512</dim>
					<dim>4</dim>
					<dim>16</dim>
				</port>
			</output>
		</layer>
		<layer id="120" name="Relu_73" type="ReLU" version="opset1">
			<input>
				<port id="0" precision="FP32">
					<dim>1</dim>
					<dim>512</dim>
					<dim>4</dim>
					<dim>16</dim>
				</port>
			</input>
			<output>
				<port id="1" names="254" precision="FP32">
					<dim>1</dim>
					<dim>512</dim>
					<dim>4</dim>
					<dim>16</dim>
				</port>
			</output>
		</layer>
		<layer id="121" name="BatchNormalization_75/mean/Fused_Mul__copy" type="Const" version="opset1">
			<data element_type="f32" offset="10230272" shape="512, 512, 1, 1" size="1048576"/>
			<output>
				<port id="0" names="backbone.layer2.3.conv3.weight" precision="FP32">
					<dim>512</dim>
					<dim>512</dim>
					<dim>1</dim>
					<dim>1</dim>
				</port>
			</output>
		</layer>
		<layer id="122" name="Conv_74" type="Convolution" version="opset1">
			<data auto_pad="explicit" dilations="1, 1" pads_begin="0, 0" pads_end="0, 0" strides="1, 1"/>
			<input>
				<port id="0" precision="FP32">
					<dim>1</dim>
					<dim>512</dim>
					<dim>4</dim>
					<dim>16</dim>
				</port>
				<port id="1" precision="FP32">
					<dim>512</dim>
					<dim>512</dim>
					<dim>1</dim>
					<dim>1</dim>
				</port>
			</input>
			<output>
				<port id="2" precision="FP32">
					<dim>1</dim>
					<dim>512</dim>
					<dim>4</dim>
					<dim>16</dim>
				</port>
			</output>
		</layer>
		<layer id="123" name="data_add_70267031" type="Const" version="opset1">
			<data element_type="f32" offset="11278848" shape="1, 512, 1, 1" size="2048"/>
			<output>
				<port id="0" precision="FP32">
					<dim>1</dim>
					<dim>512</dim>
					<dim>1</dim>
					<dim>1</dim>
				</port>
			</output>
		</layer>
		<layer id="124" name="BatchNormalization_75/variance/Fused_Add_" type="Add" version="opset1">
			<data auto_broadcast="numpy"/>
			<input>
				<port id="0" precision="FP32">
					<dim>1</dim>
					<dim>512</dim>
					<dim>4</dim>
					<dim>16</dim>
				</port>
				<port id="1" precision="FP32">
					<dim>1</dim>
					<dim>512</dim>
					<dim>1</dim>
					<dim>1</dim>
				</port>
			</input>
			<output>
				<port id="2" names="256" precision="FP32">
					<dim>1</dim>
					<dim>512</dim>
					<dim>4</dim>
					<dim>16</dim>
				</port>
			</output>
		</layer>
		<layer id="125" name="Add_76" type="Add" version="opset1">
			<data auto_broadcast="numpy"/>
			<input>
				<port id="0" precision="FP32">
					<dim>1</dim>
					<dim>512</dim>
					<dim>4</dim>
					<dim>16</dim>
				</port>
				<port id="1" precision="FP32">
					<dim>1</dim>
					<dim>512</dim>
					<dim>4</dim>
					<dim>16</dim>
				</port>
			</input>
			<output>
				<port id="2" names="257" precision="FP32">
					<dim>1</dim>
					<dim>512</dim>
					<dim>4</dim>
					<dim>16</dim>
				</port>
			</output>
		</layer>
		<layer id="126" name="Relu_77" type="ReLU" version="opset1">
			<input>
				<port id="0" precision="FP32">
					<dim>1</dim>
					<dim>512</dim>
					<dim>4</dim>
					<dim>16</dim>
				</port>
			</input>
			<output>
				<port id="1" names="258" precision="FP32">
					<dim>1</dim>
					<dim>512</dim>
					<dim>4</dim>
					<dim>16</dim>
				</port>
			</output>
		</layer>
		<layer id="127" name="293" type="Const" version="opset1">
			<data element_type="i64" offset="11280896" shape="4" size="32"/>
			<output>
				<port id="0" precision="I64">
					<dim>4</dim>
				</port>
			</output>
		</layer>
		<layer id="128" name="Transpose_78" type="Transpose" version="opset1">
			<input>
				<port id="0" precision="FP32">
					<dim>1</dim>
					<dim>512</dim>
					<dim>4</dim>
					<dim>16</dim>
				</port>
				<port id="1" precision="I64">
					<dim>4</dim>
				</port>
			</input>
			<output>
				<port id="2" names="259" precision="FP32">
					<dim>1</dim>
					<dim>512</dim>
					<dim>16</dim>
					<dim>4</dim>
				</port>
			</output>
		</layer>
		<layer id="129" name="803" type="Const" version="opset1">
			<data element_type="f32" offset="11280928" shape="1, 4" size="16"/>
			<output>
				<port id="0" names="803" precision="FP32">
					<dim>1</dim>
					<dim>4</dim>
				</port>
			</output>
		</layer>
		<layer id="130" name="MatMul_79" type="MatMul" version="opset1">
			<data transpose_a="false" transpose_b="true"/>
			<input>
				<port id="0" precision="FP32">
					<dim>1</dim>
					<dim>512</dim>
					<dim>16</dim>
					<dim>4</dim>
				</port>
				<port id="1" precision="FP32">
					<dim>1</dim>
					<dim>4</dim>
				</port>
			</input>
			<output>
				<port id="2" names="261" precision="FP32">
					<dim>1</dim>
					<dim>512</dim>
					<dim>16</dim>
					<dim>1</dim>
				</port>
			</output>
		</layer>
		<layer id="131" name="head.reduction.bias" type="Const" version="opset1">
			<data element_type="f32" offset="11280944" shape="1, 1, 1, 1" size="4"/>
			<output>
				<port id="0" names="head.reduction.bias" precision="FP32">
					<dim>1</dim>
					<dim>1</dim>
					<dim>1</dim>
					<dim>1</dim>
				</port>
			</output>
		</layer>
		<layer id="132" name="Add_80" type="Add" version="opset1">
			<data auto_broadcast="numpy"/>
			<input>
				<port id="0" precision="FP32">
					<dim>1</dim>
					<dim>512</dim>
					<dim>16</dim>
					<dim>1</dim>
				</port>
				<port id="1" precision="FP32">
					<dim>1</dim>
					<dim>1</dim>
					<dim>1</dim>
					<dim>1</dim>
				</port>
			</input>
			<output>
				<port id="2" names="262" precision="FP32">
					<dim>1</dim>
					<dim>512</dim>
					<dim>16</dim>
					<dim>1</dim>
				</port>
			</output>
		</layer>
		<layer id="133" name="295" type="Const" version="opset1">
			<data element_type="i64" offset="11280896" shape="4" size="32"/>
			<output>
				<port id="0" precision="I64">
					<dim>4</dim>
				</port>
			</output>
		</layer>
		<layer id="134" name="Transpose_81" type="Transpose" version="opset1">
			<input>
				<port id="0" precision="FP32">
					<dim>1</dim>
					<dim>512</dim>
					<dim>16</dim>
					<dim>1</dim>
				</port>
				<port id="1" precision="I64">
					<dim>4</dim>
				</port>
			</input>
			<output>
				<port id="2" names="263" precision="FP32">
					<dim>1</dim>
					<dim>512</dim>
					<dim>1</dim>
					<dim>16</dim>
				</port>
			</output>
		</layer>
		<layer id="135" name="Squeeze_82/Dims" type="Const" version="opset1">
			<data element_type="i64" offset="11280948" shape="1" size="8"/>
			<output>
				<port id="0" precision="I64">
					<dim>1</dim>
				</port>
			</output>
		</layer>
		<layer id="136" name="Squeeze_82" type="Squeeze" version="opset1">
			<input>
				<port id="0" precision="FP32">
					<dim>1</dim>
					<dim>512</dim>
					<dim>1</dim>
					<dim>16</dim>
				</port>
				<port id="1" precision="I64">
					<dim>1</dim>
				</port>
			</input>
			<output>
				<port id="2" names="264" precision="FP32">
					<dim>1</dim>
					<dim>512</dim>
					<dim>16</dim>
				</port>
			</output>
		</layer>
		<layer id="137" name="292" type="Const" version="opset1">
			<data element_type="i64" offset="11280956" shape="3" size="24"/>
			<output>
				<port id="0" precision="I64">
					<dim>3</dim>
				</port>
			</output>
		</layer>
		<layer id="138" name="Transpose_90" type="Transpose" version="opset1">
			<input>
				<port id="0" precision="FP32">
					<dim>1</dim>
					<dim>512</dim>
					<dim>16</dim>
				</port>
				<port id="1" precision="I64">
					<dim>3</dim>
				</port>
			</input>
			<output>
				<port id="2" names="276" precision="FP32">
					<dim>16</dim>
					<dim>1</dim>
					<dim>512</dim>
				</port>
			</output>
		</layer>
		<layer id="139" name="ConstantOfShape_89/Broadcast/FillValue" type="Const" version="opset1">
			<data element_type="f32" offset="11280980" shape="1" size="4"/>
			<output>
				<port id="0" precision="FP32">
					<dim>1</dim>
				</port>
			</output>
		</layer>
		<layer id="140" name="804" type="Const" version="opset1">
			<data element_type="i64" offset="11280984" shape="1" size="8"/>
			<output>
				<port id="0" names="804" precision="I64">
					<dim>1</dim>
				</port>
			</output>
		</layer>
		<layer id="141" name="291" type="Const" version="opset1">
			<data element_type="i64" offset="11280992" shape="3" size="24"/>
			<output>
				<port id="0" precision="I64">
					<dim>3</dim>
				</port>
			</output>
		</layer>
		<layer id="142" name="Transpose_83" type="Transpose" version="opset1">
			<input>
				<port id="0" precision="FP32">
					<dim>1</dim>
					<dim>512</dim>
					<dim>16</dim>
				</port>
				<port id="1" precision="I64">
					<dim>3</dim>
				</port>
			</input>
			<output>
				<port id="2" names="265" precision="FP32">
					<dim>1</dim>
					<dim>16</dim>
					<dim>512</dim>
				</port>
			</output>
		</layer>
		<layer id="143" name="Shape_84" type="ShapeOf" version="opset3">
			<data output_type="i64"/>
			<input>
				<port id="0" precision="FP32">
					<dim>1</dim>
					<dim>16</dim>
					<dim>512</dim>
				</port>
			</input>
			<output>
				<port id="1" names="266" precision="I64">
					<dim>3</dim>
				</port>
			</output>
		</layer>
		<layer id="144" name="Constant_85" type="Const" version="opset1">
			<data element_type="i32" offset="11280980" shape="" size="4"/>
			<output>
				<port id="0" names="267" precision="I32"/>
			</output>
		</layer>
		<layer id="145" name="Gather_86/axis" type="Const" version="opset1">
			<data element_type="i64" offset="11281016" shape="" size="8"/>
			<output>
				<port id="0" precision="I64"/>
			</output>
		</layer>
		<layer id="146" name="Gather_86305" type="Gather" version="opset7">
			<data batch_dims="0"/>
			<input>
				<port id="0" precision="I64">
					<dim>3</dim>
				</port>
				<port id="1" precision="I32"/>
				<port id="2" precision="I64"/>
			</input>
			<output>
				<port id="3" names="268" precision="I64"/>
			</output>
		</layer>
		<layer id="147" name="Unsqueeze_87/Dims" type="Const" version="opset1">
			<data element_type="i64" offset="11281016" shape="1" size="8"/>
			<output>
				<port id="0" precision="I64">
					<dim>1</dim>
				</port>
			</output>
		</layer>
		<layer id="148" name="Unsqueeze_87/Unsqueeze" type="Unsqueeze" version="opset1">
			<input>
				<port id="0" precision="I64"/>
				<port id="1" precision="I64">
					<dim>1</dim>
				</port>
			</input>
			<output>
				<port id="2" names="272" precision="I64">
					<dim>1</dim>
				</port>
			</output>
		</layer>
		<layer id="149" name="805" type="Const" version="opset1">
			<data element_type="i64" offset="11281024" shape="1" size="8"/>
			<output>
				<port id="0" names="805" precision="I64">
					<dim>1</dim>
				</port>
			</output>
		</layer>
		<layer id="150" name="Concat_88" type="Concat" version="opset1">
			<data axis="0"/>
			<input>
				<port id="0" precision="I64">
					<dim>1</dim>
				</port>
				<port id="1" precision="I64">
					<dim>1</dim>
				</port>
				<port id="2" precision="I64">
					<dim>1</dim>
				</port>
			</input>
			<output>
				<port id="3" names="274" precision="I64">
					<dim>3</dim>
				</port>
			</output>
		</layer>
		<layer id="151" name="ConstantOfShape_89/Broadcast" type="Broadcast" version="opset3">
			<data mode="numpy"/>
			<input>
				<port id="0" precision="FP32">
					<dim>1</dim>
				</port>
				<port id="1" precision="I64">
					<dim>3</dim>
				</port>
			</input>
			<output>
				<port id="2" names="275" precision="FP32">
					<dim>4</dim>
					<dim>1</dim>
					<dim>256</dim>
				</port>
			</output>
		</layer>
		<layer id="152" name="Slice_94/Concat398713699" type="Const" version="opset1">
			<data element_type="i64" offset="11281032" shape="3" size="24"/>
			<output>
				<port id="0" precision="I64">
					<dim>3</dim>
				</port>
			</output>
		</layer>
		<layer id="153" name="Slice_94/Concat3973398813888" type="Const" version="opset1">
			<data element_type="i64" offset="11281056" shape="3" size="24"/>
			<output>
				<port id="0" precision="I64">
					<dim>3</dim>
				</port>
			</output>
		</layer>
		<layer id="154" name="Slice_94/Strides398913849" type="Const" version="opset1">
			<data element_type="i64" offset="11281080" shape="3" size="24"/>
			<output>
				<port id="0" precision="I64">
					<dim>3</dim>
				</port>
			</output>
		</layer>
		<layer id="155" name="Slice_94" type="StridedSlice" version="opset1">
			<data begin_mask="0, 1, 1" ellipsis_mask="0, 0, 0" end_mask="0, 1, 1" new_axis_mask="0, 0, 0" shrink_axis_mask="0, 0, 0"/>
			<input>
				<port id="0" precision="FP32">
					<dim>4</dim>
					<dim>1</dim>
					<dim>256</dim>
				</port>
				<port id="1" precision="I64">
					<dim>3</dim>
				</port>
				<port id="2" precision="I64">
					<dim>3</dim>
				</port>
				<port id="3" precision="I64">
					<dim>3</dim>
				</port>
			</input>
			<output>
				<port id="4" names="396" precision="FP32">
					<dim>2</dim>
					<dim>1</dim>
					<dim>256</dim>
				</port>
			</output>
		</layer>
		<layer id="156" name="268813756" type="Const" version="opset1">
			<data element_type="i64" offset="11281016" shape="" size="8"/>
			<output>
				<port id="0" precision="I64"/>
			</output>
		</layer>
		<layer id="157" name="Slice_94/Output_0/Data_/DecomposedBiLSTM_0" type="Split" version="opset1">
			<data num_splits="2"/>
			<input>
				<port id="0" precision="FP32">
					<dim>2</dim>
					<dim>1</dim>
					<dim>256</dim>
				</port>
				<port id="1" precision="I64"/>
			</input>
			<output>
				<port id="2" precision="FP32">
					<dim>1</dim>
					<dim>1</dim>
					<dim>256</dim>
				</port>
				<port id="3" precision="FP32">
					<dim>1</dim>
					<dim>1</dim>
					<dim>256</dim>
				</port>
			</output>
		</layer>
		<layer id="158" name="LSTM_99/Split/forward/ShapeOf" type="ShapeOf" version="opset3">
			<data output_type="i64"/>
			<input>
				<port id="0" precision="FP32">
					<dim>16</dim>
					<dim>1</dim>
					<dim>512</dim>
				</port>
			</input>
			<output>
				<port id="1" precision="I64">
					<dim>3</dim>
				</port>
			</output>
		</layer>
		<layer id="159" name="LSTM_99/Split/forward/ShapeOf/Indices290813600" type="Const" version="opset1">
			<data element_type="i32" offset="11281104" shape="1" size="4"/>
			<output>
				<port id="0" precision="I32">
					<dim>1</dim>
				</port>
			</output>
		</layer>
		<layer id="160" name="LSTM_99/Split/forward/ShapeOf/Axis290913663" type="Const" version="opset1">
			<data element_type="i64" offset="11281016" shape="" size="8"/>
			<output>
				<port id="0" precision="I64"/>
			</output>
		</layer>
		<layer id="161" name="LSTM_99/Split/forward/ShapeOf/Gather" type="Gather" version="opset7">
			<data batch_dims="0"/>
			<input>
				<port id="0" precision="I64">
					<dim>3</dim>
				</port>
				<port id="1" precision="I32">
					<dim>1</dim>
				</port>
				<port id="2" precision="I64"/>
			</input>
			<output>
				<port id="3" precision="I64">
					<dim>1</dim>
				</port>
			</output>
		</layer>
		<layer id="162" name="LSTM_99/Split/forward/HiddenStateResizeDim/value291313933" type="Const" version="opset1">
			<data element_type="i64" offset="11281024" shape="1" size="8"/>
			<output>
				<port id="0" precision="I64">
					<dim>1</dim>
				</port>
			</output>
		</layer>
		<layer id="163" name="LSTM_99/Split/forward/HiddenStateResizeDim" type="Concat" version="opset1">
			<data axis="0"/>
			<input>
				<port id="0" precision="I64">
					<dim>1</dim>
				</port>
				<port id="1" precision="I64">
					<dim>1</dim>
				</port>
			</input>
			<output>
				<port id="2" precision="I64">
					<dim>2</dim>
				</port>
			</output>
		</layer>
		<layer id="164" name="LSTM_99/Split/forward/HiddenStateResize" type="Reshape" version="opset1">
			<data special_zero="true"/>
			<input>
				<port id="0" precision="FP32">
					<dim>1</dim>
					<dim>1</dim>
					<dim>256</dim>
				</port>
				<port id="1" precision="I64">
					<dim>2</dim>
				</port>
			</input>
			<output>
				<port id="2" precision="FP32">
					<dim>1</dim>
					<dim>256</dim>
				</port>
			</output>
		</layer>
		<layer id="165" name="Slice_98/Concat403113879" type="Const" version="opset1">
			<data element_type="i64" offset="11281032" shape="3" size="24"/>
			<output>
				<port id="0" precision="I64">
					<dim>3</dim>
				</port>
			</output>
		</layer>
		<layer id="166" name="Slice_98/Concat4017403213729" type="Const" version="opset1">
			<data element_type="i64" offset="11281056" shape="3" size="24"/>
			<output>
				<port id="0" precision="I64">
					<dim>3</dim>
				</port>
			</output>
		</layer>
		<layer id="167" name="Slice_98/Strides403313555" type="Const" version="opset1">
			<data element_type="i64" offset="11281080" shape="3" size="24"/>
			<output>
				<port id="0" precision="I64">
					<dim>3</dim>
				</port>
			</output>
		</layer>
		<layer id="168" name="Slice_98" type="StridedSlice" version="opset1">
			<data begin_mask="0, 1, 1" ellipsis_mask="0, 0, 0" end_mask="0, 1, 1" new_axis_mask="0, 0, 0" shrink_axis_mask="0, 0, 0"/>
			<input>
				<port id="0" precision="FP32">
					<dim>4</dim>
					<dim>1</dim>
					<dim>256</dim>
				</port>
				<port id="1" precision="I64">
					<dim>3</dim>
				</port>
				<port id="2" precision="I64">
					<dim>3</dim>
				</port>
				<port id="3" precision="I64">
					<dim>3</dim>
				</port>
			</input>
			<output>
				<port id="4" names="400" precision="FP32">
					<dim>2</dim>
					<dim>1</dim>
					<dim>256</dim>
				</port>
			</output>
		</layer>
		<layer id="169" name="269313891" type="Const" version="opset1">
			<data element_type="i64" offset="11281016" shape="" size="8"/>
			<output>
				<port id="0" precision="I64"/>
			</output>
		</layer>
		<layer id="170" name="Slice_98/Output_0/Data_/DecomposedBiLSTM_0" type="Split" version="opset1">
			<data num_splits="2"/>
			<input>
				<port id="0" precision="FP32">
					<dim>2</dim>
					<dim>1</dim>
					<dim>256</dim>
				</port>
				<port id="1" precision="I64"/>
			</input>
			<output>
				<port id="2" precision="FP32">
					<dim>1</dim>
					<dim>1</dim>
					<dim>256</dim>
				</port>
				<port id="3" precision="FP32">
					<dim>1</dim>
					<dim>1</dim>
					<dim>256</dim>
				</port>
			</output>
		</layer>
		<layer id="171" name="LSTM_99/Split/forward/CellStateResize" type="Reshape" version="opset1">
			<data special_zero="true"/>
			<input>
				<port id="0" precision="FP32">
					<dim>1</dim>
					<dim>1</dim>
					<dim>256</dim>
				</port>
				<port id="1" precision="I64">
					<dim>2</dim>
				</port>
			</input>
			<output>
				<port id="2" precision="FP32">
					<dim>1</dim>
					<dim>256</dim>
				</port>
			</output>
		</layer>
		<layer id="172" name="LSTM_99/Split/forward/TensorIterator" type="TensorIterator" version="opset1">
			<port_map>
				<input axis="0" end="-1" external_port_id="0" internal_layer_id="2" part_size="1" start="0" stride="1"/>
				<input external_port_id="1" internal_layer_id="1"/>
				<input external_port_id="2" internal_layer_id="0"/>
				<output axis="0" end="-1" external_port_id="3" internal_layer_id="11" part_size="1" start="0" stride="1"/>
				<output external_port_id="4" internal_layer_id="13"/>
				<output external_port_id="5" internal_layer_id="12"/>
			</port_map>
			<back_edges>
				<edge from-layer="13" to-layer="1"/>
				<edge from-layer="12" to-layer="0"/>
			</back_edges>
			<input>
				<port id="0" precision="FP32">
					<dim>16</dim>
					<dim>1</dim>
					<dim>512</dim>
				</port>
				<port id="1" precision="FP32">
					<dim>1</dim>
					<dim>256</dim>
				</port>
				<port id="2" precision="FP32">
					<dim>1</dim>
					<dim>256</dim>
				</port>
			</input>
			<output>
				<port id="3" precision="FP32">
					<dim>16</dim>
					<dim>1</dim>
					<dim>256</dim>
				</port>
				<port id="4" precision="FP32">
					<dim>1</dim>
					<dim>256</dim>
				</port>
				<port id="5" precision="FP32">
					<dim>1</dim>
					<dim>256</dim>
				</port>
			</output>
			<body>
				<layers>
					<layer id="0" name="24" type="Parameter" version="opset1">
						<data element_type="f32" shape="1, 256"/>
						<output>
							<port id="0" precision="FP32">
								<dim>1</dim>
								<dim>256</dim>
							</port>
						</output>
					</layer>
					<layer id="1" name="22" type="Parameter" version="opset1">
						<data element_type="f32" shape="1, 256"/>
						<output>
							<port id="0" precision="FP32">
								<dim>1</dim>
								<dim>256</dim>
							</port>
						</output>
					</layer>
					<layer id="2" name="20" type="Parameter" version="opset1">
						<data element_type="f32" shape="1, 1, 512"/>
						<output>
							<port id="0" precision="FP32">
								<dim>1</dim>
								<dim>1</dim>
								<dim>512</dim>
							</port>
						</output>
					</layer>
					<layer id="3" name="7253" type="Const" version="opset1">
						<data element_type="i64" offset="11281016" shape="1" size="8"/>
						<output>
							<port id="0" precision="I64">
								<dim>1</dim>
							</port>
						</output>
					</layer>
					<layer id="4" name="LSTM_99/Split/forward/input_squeeze" type="Squeeze" version="opset1">
						<input>
							<port id="0" precision="FP32">
								<dim>1</dim>
								<dim>1</dim>
								<dim>512</dim>
							</port>
							<port id="1" precision="I64">
								<dim>1</dim>
							</port>
						</input>
						<output>
							<port id="2" precision="FP32">
								<dim>1</dim>
								<dim>512</dim>
							</port>
						</output>
					</layer>
					<layer id="5" name="LSTM_99/Split/forward/LSTMCell/Split197244" type="Const" version="opset1">
						<data element_type="f32" offset="11281108" shape="1024, 512" size="2097152"/>
						<output>
							<port id="0" precision="FP32">
								<dim>1024</dim>
								<dim>512</dim>
							</port>
						</output>
					</layer>
					<layer id="6" name="LSTM_99/Split/forward/LSTMCell/Split198250" type="Const" version="opset1">
						<data element_type="f32" offset="13378260" shape="1024, 256" size="1048576"/>
						<output>
							<port id="0" precision="FP32">
								<dim>1024</dim>
								<dim>256</dim>
							</port>
						</output>
					</layer>
					<layer id="7" name="LSTM_99/Split/forward/inport/2256" type="Const" version="opset1">
						<data element_type="f32" offset="14426836" shape="1024" size="4096"/>
						<output>
							<port id="0" precision="FP32">
								<dim>1024</dim>
							</port>
						</output>
					</layer>
					<layer id="8" name="LSTM_99/Split/forward/LSTMCell" type="LSTMCell" version="opset4">
						<data activations="sigmoid, tanh, tanh" activations_alpha="" activations_beta="" clip="0" hidden_size="256"/>
						<input>
							<port id="0" precision="FP32">
								<dim>1</dim>
								<dim>512</dim>
							</port>
							<port id="1" precision="FP32">
								<dim>1</dim>
								<dim>256</dim>
							</port>
							<port id="2" precision="FP32">
								<dim>1</dim>
								<dim>256</dim>
							</port>
							<port id="3" precision="FP32">
								<dim>1024</dim>
								<dim>512</dim>
							</port>
							<port id="4" precision="FP32">
								<dim>1024</dim>
								<dim>256</dim>
							</port>
							<port id="5" precision="FP32">
								<dim>1024</dim>
							</port>
						</input>
						<output>
							<port id="6" precision="FP32">
								<dim>1</dim>
								<dim>256</dim>
							</port>
							<port id="7" precision="FP32">
								<dim>1</dim>
								<dim>256</dim>
							</port>
						</output>
					</layer>
					<layer id="9" name="15247" type="Const" version="opset1">
						<data element_type="i64" offset="11281016" shape="1" size="8"/>
						<output>
							<port id="0" precision="I64">
								<dim>1</dim>
							</port>
						</output>
					</layer>
					<layer id="10" name="LSTM_99/Split/forwardoutput_unsqueeze" type="Unsqueeze" version="opset1">
						<input>
							<port id="0" precision="FP32">
								<dim>1</dim>
								<dim>256</dim>
							</port>
							<port id="1" precision="I64">
								<dim>1</dim>
							</port>
						</input>
						<output>
							<port id="2" precision="FP32">
								<dim>1</dim>
								<dim>1</dim>
								<dim>256</dim>
							</port>
						</output>
					</layer>
					<layer id="11" name="18/sink_port_0" type="Result" version="opset1">
						<input>
							<port id="0" precision="FP32">
								<dim>1</dim>
								<dim>1</dim>
								<dim>256</dim>
							</port>
						</input>
					</layer>
					<layer id="12" name="LSTM_99/Split/forward/outport/1/sink_port_0" type="Result" version="opset1">
						<input>
							<port id="0" precision="FP32">
								<dim>1</dim>
								<dim>256</dim>
							</port>
						</input>
					</layer>
					<layer id="13" name="LSTM_99/Split/forward/outport/0/sink_port_0" type="Result" version="opset1">
						<input>
							<port id="0" precision="FP32">
								<dim>1</dim>
								<dim>256</dim>
							</port>
						</input>
					</layer>
				</layers>
				<edges>
					<edge from-layer="0" from-port="0" to-layer="8" to-port="2"/>
					<edge from-layer="1" from-port="0" to-layer="8" to-port="1"/>
					<edge from-layer="2" from-port="0" to-layer="4" to-port="0"/>
					<edge from-layer="3" from-port="0" to-layer="4" to-port="1"/>
					<edge from-layer="4" from-port="2" to-layer="8" to-port="0"/>
					<edge from-layer="5" from-port="0" to-layer="8" to-port="3"/>
					<edge from-layer="6" from-port="0" to-layer="8" to-port="4"/>
					<edge from-layer="7" from-port="0" to-layer="8" to-port="5"/>
					<edge from-layer="8" from-port="6" to-layer="10" to-port="0"/>
					<edge from-layer="8" from-port="7" to-layer="12" to-port="0"/>
					<edge from-layer="8" from-port="6" to-layer="13" to-port="0"/>
					<edge from-layer="9" from-port="0" to-layer="10" to-port="1"/>
					<edge from-layer="10" from-port="2" to-layer="11" to-port="0"/>
				</edges>
			</body>
		</layer>
		<layer id="173" name="289313801" type="Const" version="opset1">
			<data element_type="i64" offset="14430932" shape="1" size="8"/>
			<output>
				<port id="0" precision="I64">
					<dim>1</dim>
				</port>
			</output>
		</layer>
		<layer id="174" name="LSTM_99/Split/forward/UnsqueezeNumDirections/0" type="Unsqueeze" version="opset1">
			<input>
				<port id="0" precision="FP32">
					<dim>16</dim>
					<dim>1</dim>
					<dim>256</dim>
				</port>
				<port id="1" precision="I64">
					<dim>1</dim>
				</port>
			</input>
			<output>
				<port id="2" precision="FP32">
					<dim>16</dim>
					<dim>1</dim>
					<dim>1</dim>
					<dim>256</dim>
				</port>
			</output>
		</layer>
		<layer id="175" name="LSTM_99/Split/reverse/ShapeOf" type="ShapeOf" version="opset3">
			<data output_type="i64"/>
			<input>
				<port id="0" precision="FP32">
					<dim>16</dim>
					<dim>1</dim>
					<dim>512</dim>
				</port>
			</input>
			<output>
				<port id="1" precision="I64">
					<dim>3</dim>
				</port>
			</output>
		</layer>
		<layer id="176" name="LSTM_99/Split/reverse/ShapeOf/Indices293813792" type="Const" version="opset1">
			<data element_type="i32" offset="11281104" shape="1" size="4"/>
			<output>
				<port id="0" precision="I32">
					<dim>1</dim>
				</port>
			</output>
		</layer>
		<layer id="177" name="LSTM_99/Split/reverse/ShapeOf/Axis293913876" type="Const" version="opset1">
			<data element_type="i64" offset="11281016" shape="" size="8"/>
			<output>
				<port id="0" precision="I64"/>
			</output>
		</layer>
		<layer id="178" name="LSTM_99/Split/reverse/ShapeOf/Gather" type="Gather" version="opset7">
			<data batch_dims="0"/>
			<input>
				<port id="0" precision="I64">
					<dim>3</dim>
				</port>
				<port id="1" precision="I32">
					<dim>1</dim>
				</port>
				<port id="2" precision="I64"/>
			</input>
			<output>
				<port id="3" precision="I64">
					<dim>1</dim>
				</port>
			</output>
		</layer>
		<layer id="179" name="LSTM_99/Split/reverse/HiddenStateResizeDim/value294313846" type="Const" version="opset1">
			<data element_type="i64" offset="11281024" shape="1" size="8"/>
			<output>
				<port id="0" precision="I64">
					<dim>1</dim>
				</port>
			</output>
		</layer>
		<layer id="180" name="LSTM_99/Split/reverse/HiddenStateResizeDim" type="Concat" version="opset1">
			<data axis="0"/>
			<input>
				<port id="0" precision="I64">
					<dim>1</dim>
				</port>
				<port id="1" precision="I64">
					<dim>1</dim>
				</port>
			</input>
			<output>
				<port id="2" precision="I64">
					<dim>2</dim>
				</port>
			</output>
		</layer>
		<layer id="181" name="LSTM_99/Split/reverse/HiddenStateResize" type="Reshape" version="opset1">
			<data special_zero="true"/>
			<input>
				<port id="0" precision="FP32">
					<dim>1</dim>
					<dim>1</dim>
					<dim>256</dim>
				</port>
				<port id="1" precision="I64">
					<dim>2</dim>
				</port>
			</input>
			<output>
				<port id="2" precision="FP32">
					<dim>1</dim>
					<dim>256</dim>
				</port>
			</output>
		</layer>
		<layer id="182" name="LSTM_99/Split/reverse/CellStateResize" type="Reshape" version="opset1">
			<data special_zero="true"/>
			<input>
				<port id="0" precision="FP32">
					<dim>1</dim>
					<dim>1</dim>
					<dim>256</dim>
				</port>
				<port id="1" precision="I64">
					<dim>2</dim>
				</port>
			</input>
			<output>
				<port id="2" precision="FP32">
					<dim>1</dim>
					<dim>256</dim>
				</port>
			</output>
		</layer>
		<layer id="183" name="LSTM_99/Split/reverse/TensorIterator" type="TensorIterator" version="opset1">
			<port_map>
				<input axis="0" end="0" external_port_id="0" internal_layer_id="2" part_size="1" start="-1" stride="-1"/>
				<input external_port_id="1" internal_layer_id="1"/>
				<input external_port_id="2" internal_layer_id="0"/>
				<output axis="0" end="0" external_port_id="3" internal_layer_id="11" part_size="1" start="-1" stride="-1"/>
				<output external_port_id="4" internal_layer_id="13"/>
				<output external_port_id="5" internal_layer_id="12"/>
			</port_map>
			<back_edges>
				<edge from-layer="13" to-layer="1"/>
				<edge from-layer="12" to-layer="0"/>
			</back_edges>
			<input>
				<port id="0" precision="FP32">
					<dim>16</dim>
					<dim>1</dim>
					<dim>512</dim>
				</port>
				<port id="1" precision="FP32">
					<dim>1</dim>
					<dim>256</dim>
				</port>
				<port id="2" precision="FP32">
					<dim>1</dim>
					<dim>256</dim>
				</port>
			</input>
			<output>
				<port id="3" precision="FP32">
					<dim>16</dim>
					<dim>1</dim>
					<dim>256</dim>
				</port>
				<port id="4" precision="FP32">
					<dim>1</dim>
					<dim>256</dim>
				</port>
				<port id="5" precision="FP32">
					<dim>1</dim>
					<dim>256</dim>
				</port>
			</output>
			<body>
				<layers>
					<layer id="0" name="24" type="Parameter" version="opset1">
						<data element_type="f32" shape="1, 256"/>
						<output>
							<port id="0" precision="FP32">
								<dim>1</dim>
								<dim>256</dim>
							</port>
						</output>
					</layer>
					<layer id="1" name="22" type="Parameter" version="opset1">
						<data element_type="f32" shape="1, 256"/>
						<output>
							<port id="0" precision="FP32">
								<dim>1</dim>
								<dim>256</dim>
							</port>
						</output>
					</layer>
					<layer id="2" name="20" type="Parameter" version="opset1">
						<data element_type="f32" shape="1, 1, 512"/>
						<output>
							<port id="0" precision="FP32">
								<dim>1</dim>
								<dim>1</dim>
								<dim>512</dim>
							</port>
						</output>
					</layer>
					<layer id="3" name="7253" type="Const" version="opset1">
						<data element_type="i64" offset="11281016" shape="1" size="8"/>
						<output>
							<port id="0" precision="I64">
								<dim>1</dim>
							</port>
						</output>
					</layer>
					<layer id="4" name="LSTM_99/Split/reverse/input_squeeze" type="Squeeze" version="opset1">
						<input>
							<port id="0" precision="FP32">
								<dim>1</dim>
								<dim>1</dim>
								<dim>512</dim>
							</port>
							<port id="1" precision="I64">
								<dim>1</dim>
							</port>
						</input>
						<output>
							<port id="2" precision="FP32">
								<dim>1</dim>
								<dim>512</dim>
							</port>
						</output>
					</layer>
					<layer id="5" name="LSTM_99/Split/reverse/LSTMCell/Split197244" type="Const" version="opset1">
						<data element_type="f32" offset="14430940" shape="1024, 512" size="2097152"/>
						<output>
							<port id="0" precision="FP32">
								<dim>1024</dim>
								<dim>512</dim>
							</port>
						</output>
					</layer>
					<layer id="6" name="LSTM_99/Split/reverse/LSTMCell/Split198247" type="Const" version="opset1">
						<data element_type="f32" offset="16528092" shape="1024, 256" size="1048576"/>
						<output>
							<port id="0" precision="FP32">
								<dim>1024</dim>
								<dim>256</dim>
							</port>
						</output>
					</layer>
					<layer id="7" name="LSTM_99/Split/reverse/inport/2256" type="Const" version="opset1">
						<data element_type="f32" offset="17576668" shape="1024" size="4096"/>
						<output>
							<port id="0" precision="FP32">
								<dim>1024</dim>
							</port>
						</output>
					</layer>
					<layer id="8" name="LSTM_99/Split/reverse/LSTMCell" type="LSTMCell" version="opset4">
						<data activations="sigmoid, tanh, tanh" activations_alpha="" activations_beta="" clip="0" hidden_size="256"/>
						<input>
							<port id="0" precision="FP32">
								<dim>1</dim>
								<dim>512</dim>
							</port>
							<port id="1" precision="FP32">
								<dim>1</dim>
								<dim>256</dim>
							</port>
							<port id="2" precision="FP32">
								<dim>1</dim>
								<dim>256</dim>
							</port>
							<port id="3" precision="FP32">
								<dim>1024</dim>
								<dim>512</dim>
							</port>
							<port id="4" precision="FP32">
								<dim>1024</dim>
								<dim>256</dim>
							</port>
							<port id="5" precision="FP32">
								<dim>1024</dim>
							</port>
						</input>
						<output>
							<port id="6" precision="FP32">
								<dim>1</dim>
								<dim>256</dim>
							</port>
							<port id="7" precision="FP32">
								<dim>1</dim>
								<dim>256</dim>
							</port>
						</output>
					</layer>
					<layer id="9" name="15250" type="Const" version="opset1">
						<data element_type="i64" offset="11281016" shape="1" size="8"/>
						<output>
							<port id="0" precision="I64">
								<dim>1</dim>
							</port>
						</output>
					</layer>
					<layer id="10" name="LSTM_99/Split/reverseoutput_unsqueeze" type="Unsqueeze" version="opset1">
						<input>
							<port id="0" precision="FP32">
								<dim>1</dim>
								<dim>256</dim>
							</port>
							<port id="1" precision="I64">
								<dim>1</dim>
							</port>
						</input>
						<output>
							<port id="2" precision="FP32">
								<dim>1</dim>
								<dim>1</dim>
								<dim>256</dim>
							</port>
						</output>
					</layer>
					<layer id="11" name="18/sink_port_0" type="Result" version="opset1">
						<input>
							<port id="0" precision="FP32">
								<dim>1</dim>
								<dim>1</dim>
								<dim>256</dim>
							</port>
						</input>
					</layer>
					<layer id="12" name="LSTM_99/Split/reverse/outport/1/sink_port_0" type="Result" version="opset1">
						<input>
							<port id="0" precision="FP32">
								<dim>1</dim>
								<dim>256</dim>
							</port>
						</input>
					</layer>
					<layer id="13" name="LSTM_99/Split/reverse/outport/0/sink_port_0" type="Result" version="opset1">
						<input>
							<port id="0" precision="FP32">
								<dim>1</dim>
								<dim>256</dim>
							</port>
						</input>
					</layer>
				</layers>
				<edges>
					<edge from-layer="0" from-port="0" to-layer="8" to-port="2"/>
					<edge from-layer="1" from-port="0" to-layer="8" to-port="1"/>
					<edge from-layer="2" from-port="0" to-layer="4" to-port="0"/>
					<edge from-layer="3" from-port="0" to-layer="4" to-port="1"/>
					<edge from-layer="4" from-port="2" to-layer="8" to-port="0"/>
					<edge from-layer="5" from-port="0" to-layer="8" to-port="3"/>
					<edge from-layer="6" from-port="0" to-layer="8" to-port="4"/>
					<edge from-layer="7" from-port="0" to-layer="8" to-port="5"/>
					<edge from-layer="8" from-port="6" to-layer="10" to-port="0"/>
					<edge from-layer="8" from-port="7" to-layer="12" to-port="0"/>
					<edge from-layer="8" from-port="6" to-layer="13" to-port="0"/>
					<edge from-layer="9" from-port="0" to-layer="10" to-port="1"/>
					<edge from-layer="10" from-port="2" to-layer="11" to-port="0"/>
				</edges>
			</body>
		</layer>
		<layer id="184" name="292313810" type="Const" version="opset1">
			<data element_type="i64" offset="14430932" shape="1" size="8"/>
			<output>
				<port id="0" precision="I64">
					<dim>1</dim>
				</port>
			</output>
		</layer>
		<layer id="185" name="LSTM_99/Split/reverse/UnsqueezeNumDirections/0" type="Unsqueeze" version="opset1">
			<input>
				<port id="0" precision="FP32">
					<dim>16</dim>
					<dim>1</dim>
					<dim>256</dim>
				</port>
				<port id="1" precision="I64">
					<dim>1</dim>
				</port>
			</input>
			<output>
				<port id="2" precision="FP32">
					<dim>16</dim>
					<dim>1</dim>
					<dim>1</dim>
					<dim>256</dim>
				</port>
			</output>
		</layer>
		<layer id="186" name="LSTM_99/FinalConcat/Data" type="Concat" version="opset1">
			<data axis="1"/>
			<input>
				<port id="0" precision="FP32">
					<dim>16</dim>
					<dim>1</dim>
					<dim>1</dim>
					<dim>256</dim>
				</port>
				<port id="1" precision="FP32">
					<dim>16</dim>
					<dim>1</dim>
					<dim>1</dim>
					<dim>256</dim>
				</port>
			</input>
			<output>
				<port id="2" names="401" precision="FP32">
					<dim>16</dim>
					<dim>2</dim>
					<dim>1</dim>
					<dim>256</dim>
				</port>
			</output>
		</layer>
		<layer id="187" name="298" type="Const" version="opset1">
			<data element_type="i64" offset="17580764" shape="4" size="32"/>
			<output>
				<port id="0" precision="I64">
					<dim>4</dim>
				</port>
			</output>
		</layer>
		<layer id="188" name="Transpose_100" type="Transpose" version="opset1">
			<input>
				<port id="0" precision="FP32">
					<dim>16</dim>
					<dim>2</dim>
					<dim>1</dim>
					<dim>256</dim>
				</port>
				<port id="1" precision="I64">
					<dim>4</dim>
				</port>
			</input>
			<output>
				<port id="2" names="404" precision="FP32">
					<dim>16</dim>
					<dim>1</dim>
					<dim>2</dim>
					<dim>256</dim>
				</port>
			</output>
		</layer>
		<layer id="189" name="Constant_101" type="Const" version="opset1">
			<data element_type="i64" offset="17580796" shape="3" size="24"/>
			<output>
				<port id="0" names="405" precision="I64">
					<dim>3</dim>
				</port>
			</output>
		</layer>
		<layer id="190" name="Reshape_102" type="Reshape" version="opset1">
			<data special_zero="true"/>
			<input>
				<port id="0" precision="FP32">
					<dim>16</dim>
					<dim>1</dim>
					<dim>2</dim>
					<dim>256</dim>
				</port>
				<port id="1" precision="I64">
					<dim>3</dim>
				</port>
			</input>
			<output>
				<port id="2" names="406" precision="FP32">
					<dim>16</dim>
					<dim>1</dim>
					<dim>512</dim>
				</port>
			</output>
		</layer>
		<layer id="191" name="Slice_106/Concat407513753" type="Const" version="opset1">
			<data element_type="i64" offset="11281056" shape="3" size="24"/>
			<output>
				<port id="0" precision="I64">
					<dim>3</dim>
				</port>
			</output>
		</layer>
		<layer id="192" name="Slice_106/Concat4061407613561" type="Const" version="opset1">
			<data element_type="i64" offset="17580820" shape="3" size="24"/>
			<output>
				<port id="0" precision="I64">
					<dim>3</dim>
				</port>
			</output>
		</layer>
		<layer id="193" name="Slice_106/Strides407713585" type="Const" version="opset1">
			<data element_type="i64" offset="11281080" shape="3" size="24"/>
			<output>
				<port id="0" precision="I64">
					<dim>3</dim>
				</port>
			</output>
		</layer>
		<layer id="194" name="Slice_106" type="StridedSlice" version="opset1">
			<data begin_mask="0, 1, 1" ellipsis_mask="0, 0, 0" end_mask="0, 1, 1" new_axis_mask="0, 0, 0" shrink_axis_mask="0, 0, 0"/>
			<input>
				<port id="0" precision="FP32">
					<dim>4</dim>
					<dim>1</dim>
					<dim>256</dim>
				</port>
				<port id="1" precision="I64">
					<dim>3</dim>
				</port>
				<port id="2" precision="I64">
					<dim>3</dim>
				</port>
				<port id="3" precision="I64">
					<dim>3</dim>
				</port>
			</input>
			<output>
				<port id="4" names="525" precision="FP32">
					<dim>2</dim>
					<dim>1</dim>
					<dim>256</dim>
				</port>
			</output>
		</layer>
		<layer id="195" name="263413750" type="Const" version="opset1">
			<data element_type="i64" offset="11281016" shape="" size="8"/>
			<output>
				<port id="0" precision="I64"/>
			</output>
		</layer>
		<layer id="196" name="Slice_106/Output_0/Data_/DecomposedBiLSTM_0" type="Split" version="opset1">
			<data num_splits="2"/>
			<input>
				<port id="0" precision="FP32">
					<dim>2</dim>
					<dim>1</dim>
					<dim>256</dim>
				</port>
				<port id="1" precision="I64"/>
			</input>
			<output>
				<port id="2" precision="FP32">
					<dim>1</dim>
					<dim>1</dim>
					<dim>256</dim>
				</port>
				<port id="3" precision="FP32">
					<dim>1</dim>
					<dim>1</dim>
					<dim>256</dim>
				</port>
			</output>
		</layer>
		<layer id="197" name="LSTM_111/Split/forward/ShapeOf" type="ShapeOf" version="opset3">
			<data output_type="i64"/>
			<input>
				<port id="0" precision="FP32">
					<dim>16</dim>
					<dim>1</dim>
					<dim>512</dim>
				</port>
			</input>
			<output>
				<port id="1" precision="I64">
					<dim>3</dim>
				</port>
			</output>
		</layer>
		<layer id="198" name="LSTM_111/Split/forward/ShapeOf/Indices287813942" type="Const" version="opset1">
			<data element_type="i32" offset="11281104" shape="1" size="4"/>
			<output>
				<port id="0" precision="I32">
					<dim>1</dim>
				</port>
			</output>
		</layer>
		<layer id="199" name="LSTM_111/Split/forward/ShapeOf/Axis287913924" type="Const" version="opset1">
			<data element_type="i64" offset="11281016" shape="" size="8"/>
			<output>
				<port id="0" precision="I64"/>
			</output>
		</layer>
		<layer id="200" name="LSTM_111/Split/forward/ShapeOf/Gather" type="Gather" version="opset7">
			<data batch_dims="0"/>
			<input>
				<port id="0" precision="I64">
					<dim>3</dim>
				</port>
				<port id="1" precision="I32">
					<dim>1</dim>
				</port>
				<port id="2" precision="I64"/>
			</input>
			<output>
				<port id="3" precision="I64">
					<dim>1</dim>
				</port>
			</output>
		</layer>
		<layer id="201" name="LSTM_111/Split/forward/HiddenStateResizeDim/value288313666" type="Const" version="opset1">
			<data element_type="i64" offset="11281024" shape="1" size="8"/>
			<output>
				<port id="0" precision="I64">
					<dim>1</dim>
				</port>
			</output>
		</layer>
		<layer id="202" name="LSTM_111/Split/forward/HiddenStateResizeDim" type="Concat" version="opset1">
			<data axis="0"/>
			<input>
				<port id="0" precision="I64">
					<dim>1</dim>
				</port>
				<port id="1" precision="I64">
					<dim>1</dim>
				</port>
			</input>
			<output>
				<port id="2" precision="I64">
					<dim>2</dim>
				</port>
			</output>
		</layer>
		<layer id="203" name="LSTM_111/Split/forward/HiddenStateResize" type="Reshape" version="opset1">
			<data special_zero="true"/>
			<input>
				<port id="0" precision="FP32">
					<dim>1</dim>
					<dim>1</dim>
					<dim>256</dim>
				</port>
				<port id="1" precision="I64">
					<dim>2</dim>
				</port>
			</input>
			<output>
				<port id="2" precision="FP32">
					<dim>1</dim>
					<dim>256</dim>
				</port>
			</output>
		</layer>
		<layer id="204" name="Slice_110/Concat411913567" type="Const" version="opset1">
			<data element_type="i64" offset="11281056" shape="3" size="24"/>
			<output>
				<port id="0" precision="I64">
					<dim>3</dim>
				</port>
			</output>
		</layer>
		<layer id="205" name="Slice_110/Concat4105412013777" type="Const" version="opset1">
			<data element_type="i64" offset="17580820" shape="3" size="24"/>
			<output>
				<port id="0" precision="I64">
					<dim>3</dim>
				</port>
			</output>
		</layer>
		<layer id="206" name="Slice_110/Strides412113627" type="Const" version="opset1">
			<data element_type="i64" offset="11281080" shape="3" size="24"/>
			<output>
				<port id="0" precision="I64">
					<dim>3</dim>
				</port>
			</output>
		</layer>
		<layer id="207" name="Slice_110" type="StridedSlice" version="opset1">
			<data begin_mask="0, 1, 1" ellipsis_mask="0, 0, 0" end_mask="0, 1, 1" new_axis_mask="0, 0, 0" shrink_axis_mask="0, 0, 0"/>
			<input>
				<port id="0" precision="FP32">
					<dim>4</dim>
					<dim>1</dim>
					<dim>256</dim>
				</port>
				<port id="1" precision="I64">
					<dim>3</dim>
				</port>
				<port id="2" precision="I64">
					<dim>3</dim>
				</port>
				<port id="3" precision="I64">
					<dim>3</dim>
				</port>
			</input>
			<output>
				<port id="4" names="529" precision="FP32">
					<dim>2</dim>
					<dim>1</dim>
					<dim>256</dim>
				</port>
			</output>
		</layer>
		<layer id="208" name="263913858" type="Const" version="opset1">
			<data element_type="i64" offset="11281016" shape="" size="8"/>
			<output>
				<port id="0" precision="I64"/>
			</output>
		</layer>
		<layer id="209" name="Slice_110/Output_0/Data_/DecomposedBiLSTM_0" type="Split" version="opset1">
			<data num_splits="2"/>
			<input>
				<port id="0" precision="FP32">
					<dim>2</dim>
					<dim>1</dim>
					<dim>256</dim>
				</port>
				<port id="1" precision="I64"/>
			</input>
			<output>
				<port id="2" precision="FP32">
					<dim>1</dim>
					<dim>1</dim>
					<dim>256</dim>
				</port>
				<port id="3" precision="FP32">
					<dim>1</dim>
					<dim>1</dim>
					<dim>256</dim>
				</port>
			</output>
		</layer>
		<layer id="210" name="LSTM_111/Split/forward/CellStateResize" type="Reshape" version="opset1">
			<data special_zero="true"/>
			<input>
				<port id="0" precision="FP32">
					<dim>1</dim>
					<dim>1</dim>
					<dim>256</dim>
				</port>
				<port id="1" precision="I64">
					<dim>2</dim>
				</port>
			</input>
			<output>
				<port id="2" precision="FP32">
					<dim>1</dim>
					<dim>256</dim>
				</port>
			</output>
		</layer>
		<layer id="211" name="LSTM_111/Split/forward/TensorIterator" type="TensorIterator" version="opset1">
			<port_map>
				<input axis="0" end="-1" external_port_id="0" internal_layer_id="2" part_size="1" start="0" stride="1"/>
				<input external_port_id="1" internal_layer_id="1"/>
				<input external_port_id="2" internal_layer_id="0"/>
				<output axis="0" end="-1" external_port_id="3" internal_layer_id="11" part_size="1" start="0" stride="1"/>
				<output external_port_id="4" internal_layer_id="13"/>
				<output external_port_id="5" internal_layer_id="12"/>
			</port_map>
			<back_edges>
				<edge from-layer="13" to-layer="1"/>
				<edge from-layer="12" to-layer="0"/>
			</back_edges>
			<input>
				<port id="0" precision="FP32">
					<dim>16</dim>
					<dim>1</dim>
					<dim>512</dim>
				</port>
				<port id="1" precision="FP32">
					<dim>1</dim>
					<dim>256</dim>
				</port>
				<port id="2" precision="FP32">
					<dim>1</dim>
					<dim>256</dim>
				</port>
			</input>
			<output>
				<port id="3" precision="FP32">
					<dim>16</dim>
					<dim>1</dim>
					<dim>256</dim>
				</port>
				<port id="4" precision="FP32">
					<dim>1</dim>
					<dim>256</dim>
				</port>
				<port id="5" precision="FP32">
					<dim>1</dim>
					<dim>256</dim>
				</port>
			</output>
			<body>
				<layers>
					<layer id="0" name="24" type="Parameter" version="opset1">
						<data element_type="f32" shape="1, 256"/>
						<output>
							<port id="0" precision="FP32">
								<dim>1</dim>
								<dim>256</dim>
							</port>
						</output>
					</layer>
					<layer id="1" name="22" type="Parameter" version="opset1">
						<data element_type="f32" shape="1, 256"/>
						<output>
							<port id="0" precision="FP32">
								<dim>1</dim>
								<dim>256</dim>
							</port>
						</output>
					</layer>
					<layer id="2" name="20" type="Parameter" version="opset1">
						<data element_type="f32" shape="1, 1, 512"/>
						<output>
							<port id="0" precision="FP32">
								<dim>1</dim>
								<dim>1</dim>
								<dim>512</dim>
							</port>
						</output>
					</layer>
					<layer id="3" name="7253" type="Const" version="opset1">
						<data element_type="i64" offset="11281016" shape="1" size="8"/>
						<output>
							<port id="0" precision="I64">
								<dim>1</dim>
							</port>
						</output>
					</layer>
					<layer id="4" name="LSTM_111/Split/forward/input_squeeze" type="Squeeze" version="opset1">
						<input>
							<port id="0" precision="FP32">
								<dim>1</dim>
								<dim>1</dim>
								<dim>512</dim>
							</port>
							<port id="1" precision="I64">
								<dim>1</dim>
							</port>
						</input>
						<output>
							<port id="2" precision="FP32">
								<dim>1</dim>
								<dim>512</dim>
							</port>
						</output>
					</layer>
					<layer id="5" name="LSTM_111/Split/forward/LSTMCell/Split197250" type="Const" version="opset1">
						<data element_type="f32" offset="17580844" shape="1024, 512" size="2097152"/>
						<output>
							<port id="0" precision="FP32">
								<dim>1024</dim>
								<dim>512</dim>
							</port>
						</output>
					</layer>
					<layer id="6" name="LSTM_111/Split/forward/LSTMCell/Split198244" type="Const" version="opset1">
						<data element_type="f32" offset="19677996" shape="1024, 256" size="1048576"/>
						<output>
							<port id="0" precision="FP32">
								<dim>1024</dim>
								<dim>256</dim>
							</port>
						</output>
					</layer>
					<layer id="7" name="LSTM_111/Split/forward/inport/2256" type="Const" version="opset1">
						<data element_type="f32" offset="20726572" shape="1024" size="4096"/>
						<output>
							<port id="0" precision="FP32">
								<dim>1024</dim>
							</port>
						</output>
					</layer>
					<layer id="8" name="LSTM_111/Split/forward/LSTMCell" type="LSTMCell" version="opset4">
						<data activations="sigmoid, tanh, tanh" activations_alpha="" activations_beta="" clip="0" hidden_size="256"/>
						<input>
							<port id="0" precision="FP32">
								<dim>1</dim>
								<dim>512</dim>
							</port>
							<port id="1" precision="FP32">
								<dim>1</dim>
								<dim>256</dim>
							</port>
							<port id="2" precision="FP32">
								<dim>1</dim>
								<dim>256</dim>
							</port>
							<port id="3" precision="FP32">
								<dim>1024</dim>
								<dim>512</dim>
							</port>
							<port id="4" precision="FP32">
								<dim>1024</dim>
								<dim>256</dim>
							</port>
							<port id="5" precision="FP32">
								<dim>1024</dim>
							</port>
						</input>
						<output>
							<port id="6" precision="FP32">
								<dim>1</dim>
								<dim>256</dim>
							</port>
							<port id="7" precision="FP32">
								<dim>1</dim>
								<dim>256</dim>
							</port>
						</output>
					</layer>
					<layer id="9" name="15247" type="Const" version="opset1">
						<data element_type="i64" offset="11281016" shape="1" size="8"/>
						<output>
							<port id="0" precision="I64">
								<dim>1</dim>
							</port>
						</output>
					</layer>
					<layer id="10" name="LSTM_111/Split/forwardoutput_unsqueeze" type="Unsqueeze" version="opset1">
						<input>
							<port id="0" precision="FP32">
								<dim>1</dim>
								<dim>256</dim>
							</port>
							<port id="1" precision="I64">
								<dim>1</dim>
							</port>
						</input>
						<output>
							<port id="2" precision="FP32">
								<dim>1</dim>
								<dim>1</dim>
								<dim>256</dim>
							</port>
						</output>
					</layer>
					<layer id="11" name="18/sink_port_0" type="Result" version="opset1">
						<input>
							<port id="0" precision="FP32">
								<dim>1</dim>
								<dim>1</dim>
								<dim>256</dim>
							</port>
						</input>
					</layer>
					<layer id="12" name="LSTM_111/Split/forward/outport/1/sink_port_0" type="Result" version="opset1">
						<input>
							<port id="0" precision="FP32">
								<dim>1</dim>
								<dim>256</dim>
							</port>
						</input>
					</layer>
					<layer id="13" name="LSTM_111/Split/forward/outport/0/sink_port_0" type="Result" version="opset1">
						<input>
							<port id="0" precision="FP32">
								<dim>1</dim>
								<dim>256</dim>
							</port>
						</input>
					</layer>
				</layers>
				<edges>
					<edge from-layer="0" from-port="0" to-layer="8" to-port="2"/>
					<edge from-layer="1" from-port="0" to-layer="8" to-port="1"/>
					<edge from-layer="2" from-port="0" to-layer="4" to-port="0"/>
					<edge from-layer="3" from-port="0" to-layer="4" to-port="1"/>
					<edge from-layer="4" from-port="2" to-layer="8" to-port="0"/>
					<edge from-layer="5" from-port="0" to-layer="8" to-port="3"/>
					<edge from-layer="6" from-port="0" to-layer="8" to-port="4"/>
					<edge from-layer="7" from-port="0" to-layer="8" to-port="5"/>
					<edge from-layer="8" from-port="6" to-layer="10" to-port="0"/>
					<edge from-layer="8" from-port="7" to-layer="12" to-port="0"/>
					<edge from-layer="8" from-port="6" to-layer="13" to-port="0"/>
					<edge from-layer="9" from-port="0" to-layer="10" to-port="1"/>
					<edge from-layer="10" from-port="2" to-layer="11" to-port="0"/>
				</edges>
			</body>
		</layer>
		<layer id="212" name="286313804" type="Const" version="opset1">
			<data element_type="i64" offset="14430932" shape="1" size="8"/>
			<output>
				<port id="0" precision="I64">
					<dim>1</dim>
				</port>
			</output>
		</layer>
		<layer id="213" name="LSTM_111/Split/forward/UnsqueezeNumDirections/0" type="Unsqueeze" version="opset1">
			<input>
				<port id="0" precision="FP32">
					<dim>16</dim>
					<dim>1</dim>
					<dim>256</dim>
				</port>
				<port id="1" precision="I64">
					<dim>1</dim>
				</port>
			</input>
			<output>
				<port id="2" precision="FP32">
					<dim>16</dim>
					<dim>1</dim>
					<dim>1</dim>
					<dim>256</dim>
				</port>
			</output>
		</layer>
		<layer id="214" name="LSTM_111/Split/reverse/ShapeOf" type="ShapeOf" version="opset3">
			<data output_type="i64"/>
			<input>
				<port id="0" precision="FP32">
					<dim>16</dim>
					<dim>1</dim>
					<dim>512</dim>
				</port>
			</input>
			<output>
				<port id="1" precision="I64">
					<dim>3</dim>
				</port>
			</output>
		</layer>
		<layer id="215" name="LSTM_111/Split/reverse/ShapeOf/Indices281813759" type="Const" version="opset1">
			<data element_type="i32" offset="11281104" shape="1" size="4"/>
			<output>
				<port id="0" precision="I32">
					<dim>1</dim>
				</port>
			</output>
		</layer>
		<layer id="216" name="LSTM_111/Split/reverse/ShapeOf/Axis281913732" type="Const" version="opset1">
			<data element_type="i64" offset="11281016" shape="" size="8"/>
			<output>
				<port id="0" precision="I64"/>
			</output>
		</layer>
		<layer id="217" name="LSTM_111/Split/reverse/ShapeOf/Gather" type="Gather" version="opset7">
			<data batch_dims="0"/>
			<input>
				<port id="0" precision="I64">
					<dim>3</dim>
				</port>
				<port id="1" precision="I32">
					<dim>1</dim>
				</port>
				<port id="2" precision="I64"/>
			</input>
			<output>
				<port id="3" precision="I64">
					<dim>1</dim>
				</port>
			</output>
		</layer>
		<layer id="218" name="LSTM_111/Split/reverse/HiddenStateResizeDim/value282313693" type="Const" version="opset1">
			<data element_type="i64" offset="11281024" shape="1" size="8"/>
			<output>
				<port id="0" precision="I64">
					<dim>1</dim>
				</port>
			</output>
		</layer>
		<layer id="219" name="LSTM_111/Split/reverse/HiddenStateResizeDim" type="Concat" version="opset1">
			<data axis="0"/>
			<input>
				<port id="0" precision="I64">
					<dim>1</dim>
				</port>
				<port id="1" precision="I64">
					<dim>1</dim>
				</port>
			</input>
			<output>
				<port id="2" precision="I64">
					<dim>2</dim>
				</port>
			</output>
		</layer>
		<layer id="220" name="LSTM_111/Split/reverse/HiddenStateResize" type="Reshape" version="opset1">
			<data special_zero="true"/>
			<input>
				<port id="0" precision="FP32">
					<dim>1</dim>
					<dim>1</dim>
					<dim>256</dim>
				</port>
				<port id="1" precision="I64">
					<dim>2</dim>
				</port>
			</input>
			<output>
				<port id="2" precision="FP32">
					<dim>1</dim>
					<dim>256</dim>
				</port>
			</output>
		</layer>
		<layer id="221" name="LSTM_111/Split/reverse/CellStateResize" type="Reshape" version="opset1">
			<data special_zero="true"/>
			<input>
				<port id="0" precision="FP32">
					<dim>1</dim>
					<dim>1</dim>
					<dim>256</dim>
				</port>
				<port id="1" precision="I64">
					<dim>2</dim>
				</port>
			</input>
			<output>
				<port id="2" precision="FP32">
					<dim>1</dim>
					<dim>256</dim>
				</port>
			</output>
		</layer>
		<layer id="222" name="LSTM_111/Split/reverse/TensorIterator" type="TensorIterator" version="opset1">
			<port_map>
				<input axis="0" end="0" external_port_id="0" internal_layer_id="2" part_size="1" start="-1" stride="-1"/>
				<input external_port_id="1" internal_layer_id="1"/>
				<input external_port_id="2" internal_layer_id="0"/>
				<output axis="0" end="0" external_port_id="3" internal_layer_id="11" part_size="1" start="-1" stride="-1"/>
				<output external_port_id="4" internal_layer_id="13"/>
				<output external_port_id="5" internal_layer_id="12"/>
			</port_map>
			<back_edges>
				<edge from-layer="13" to-layer="1"/>
				<edge from-layer="12" to-layer="0"/>
			</back_edges>
			<input>
				<port id="0" precision="FP32">
					<dim>16</dim>
					<dim>1</dim>
					<dim>512</dim>
				</port>
				<port id="1" precision="FP32">
					<dim>1</dim>
					<dim>256</dim>
				</port>
				<port id="2" precision="FP32">
					<dim>1</dim>
					<dim>256</dim>
				</port>
			</input>
			<output>
				<port id="3" precision="FP32">
					<dim>16</dim>
					<dim>1</dim>
					<dim>256</dim>
				</port>
				<port id="4" precision="FP32">
					<dim>1</dim>
					<dim>256</dim>
				</port>
				<port id="5" precision="FP32">
					<dim>1</dim>
					<dim>256</dim>
				</port>
			</output>
			<body>
				<layers>
					<layer id="0" name="24" type="Parameter" version="opset1">
						<data element_type="f32" shape="1, 256"/>
						<output>
							<port id="0" precision="FP32">
								<dim>1</dim>
								<dim>256</dim>
							</port>
						</output>
					</layer>
					<layer id="1" name="22" type="Parameter" version="opset1">
						<data element_type="f32" shape="1, 256"/>
						<output>
							<port id="0" precision="FP32">
								<dim>1</dim>
								<dim>256</dim>
							</port>
						</output>
					</layer>
					<layer id="2" name="20" type="Parameter" version="opset1">
						<data element_type="f32" shape="1, 1, 512"/>
						<output>
							<port id="0" precision="FP32">
								<dim>1</dim>
								<dim>1</dim>
								<dim>512</dim>
							</port>
						</output>
					</layer>
					<layer id="3" name="7253" type="Const" version="opset1">
						<data element_type="i64" offset="11281016" shape="1" size="8"/>
						<output>
							<port id="0" precision="I64">
								<dim>1</dim>
							</port>
						</output>
					</layer>
					<layer id="4" name="LSTM_111/Split/reverse/input_squeeze" type="Squeeze" version="opset1">
						<input>
							<port id="0" precision="FP32">
								<dim>1</dim>
								<dim>1</dim>
								<dim>512</dim>
							</port>
							<port id="1" precision="I64">
								<dim>1</dim>
							</port>
						</input>
						<output>
							<port id="2" precision="FP32">
								<dim>1</dim>
								<dim>512</dim>
							</port>
						</output>
					</layer>
					<layer id="5" name="LSTM_111/Split/reverse/LSTMCell/Split197256" type="Const" version="opset1">
						<data element_type="f32" offset="20730668" shape="1024, 512" size="2097152"/>
						<output>
							<port id="0" precision="FP32">
								<dim>1024</dim>
								<dim>512</dim>
							</port>
						</output>
					</layer>
					<layer id="6" name="LSTM_111/Split/reverse/LSTMCell/Split198244" type="Const" version="opset1">
						<data element_type="f32" offset="22827820" shape="1024, 256" size="1048576"/>
						<output>
							<port id="0" precision="FP32">
								<dim>1024</dim>
								<dim>256</dim>
							</port>
						</output>
					</layer>
					<layer id="7" name="LSTM_111/Split/reverse/inport/2247" type="Const" version="opset1">
						<data element_type="f32" offset="23876396" shape="1024" size="4096"/>
						<output>
							<port id="0" precision="FP32">
								<dim>1024</dim>
							</port>
						</output>
					</layer>
					<layer id="8" name="LSTM_111/Split/reverse/LSTMCell" type="LSTMCell" version="opset4">
						<data activations="sigmoid, tanh, tanh" activations_alpha="" activations_beta="" clip="0" hidden_size="256"/>
						<input>
							<port id="0" precision="FP32">
								<dim>1</dim>
								<dim>512</dim>
							</port>
							<port id="1" precision="FP32">
								<dim>1</dim>
								<dim>256</dim>
							</port>
							<port id="2" precision="FP32">
								<dim>1</dim>
								<dim>256</dim>
							</port>
							<port id="3" precision="FP32">
								<dim>1024</dim>
								<dim>512</dim>
							</port>
							<port id="4" precision="FP32">
								<dim>1024</dim>
								<dim>256</dim>
							</port>
							<port id="5" precision="FP32">
								<dim>1024</dim>
							</port>
						</input>
						<output>
							<port id="6" precision="FP32">
								<dim>1</dim>
								<dim>256</dim>
							</port>
							<port id="7" precision="FP32">
								<dim>1</dim>
								<dim>256</dim>
							</port>
						</output>
					</layer>
					<layer id="9" name="15250" type="Const" version="opset1">
						<data element_type="i64" offset="11281016" shape="1" size="8"/>
						<output>
							<port id="0" precision="I64">
								<dim>1</dim>
							</port>
						</output>
					</layer>
					<layer id="10" name="LSTM_111/Split/reverseoutput_unsqueeze" type="Unsqueeze" version="opset1">
						<input>
							<port id="0" precision="FP32">
								<dim>1</dim>
								<dim>256</dim>
							</port>
							<port id="1" precision="I64">
								<dim>1</dim>
							</port>
						</input>
						<output>
							<port id="2" precision="FP32">
								<dim>1</dim>
								<dim>1</dim>
								<dim>256</dim>
							</port>
						</output>
					</layer>
					<layer id="11" name="18/sink_port_0" type="Result" version="opset1">
						<input>
							<port id="0" precision="FP32">
								<dim>1</dim>
								<dim>1</dim>
								<dim>256</dim>
							</port>
						</input>
					</layer>
					<layer id="12" name="LSTM_111/Split/reverse/outport/1/sink_port_0" type="Result" version="opset1">
						<input>
							<port id="0" precision="FP32">
								<dim>1</dim>
								<dim>256</dim>
							</port>
						</input>
					</layer>
					<layer id="13" name="LSTM_111/Split/reverse/outport/0/sink_port_0" type="Result" version="opset1">
						<input>
							<port id="0" precision="FP32">
								<dim>1</dim>
								<dim>256</dim>
							</port>
						</input>
					</layer>
				</layers>
				<edges>
					<edge from-layer="0" from-port="0" to-layer="8" to-port="2"/>
					<edge from-layer="1" from-port="0" to-layer="8" to-port="1"/>
					<edge from-layer="2" from-port="0" to-layer="4" to-port="0"/>
					<edge from-layer="3" from-port="0" to-layer="4" to-port="1"/>
					<edge from-layer="4" from-port="2" to-layer="8" to-port="0"/>
					<edge from-layer="5" from-port="0" to-layer="8" to-port="3"/>
					<edge from-layer="6" from-port="0" to-layer="8" to-port="4"/>
					<edge from-layer="7" from-port="0" to-layer="8" to-port="5"/>
					<edge from-layer="8" from-port="6" to-layer="10" to-port="0"/>
					<edge from-layer="8" from-port="7" to-layer="12" to-port="0"/>
					<edge from-layer="8" from-port="6" to-layer="13" to-port="0"/>
					<edge from-layer="9" from-port="0" to-layer="10" to-port="1"/>
					<edge from-layer="10" from-port="2" to-layer="11" to-port="0"/>
				</edges>
			</body>
		</layer>
		<layer id="223" name="280313852" type="Const" version="opset1">
			<data element_type="i64" offset="14430932" shape="1" size="8"/>
			<output>
				<port id="0" precision="I64">
					<dim>1</dim>
				</port>
			</output>
		</layer>
		<layer id="224" name="LSTM_111/Split/reverse/UnsqueezeNumDirections/0" type="Unsqueeze" version="opset1">
			<input>
				<port id="0" precision="FP32">
					<dim>16</dim>
					<dim>1</dim>
					<dim>256</dim>
				</port>
				<port id="1" precision="I64">
					<dim>1</dim>
				</port>
			</input>
			<output>
				<port id="2" precision="FP32">
					<dim>16</dim>
					<dim>1</dim>
					<dim>1</dim>
					<dim>256</dim>
				</port>
			</output>
		</layer>
		<layer id="225" name="LSTM_111/FinalConcat/Data" type="Concat" version="opset1">
			<data axis="1"/>
			<input>
				<port id="0" precision="FP32">
					<dim>16</dim>
					<dim>1</dim>
					<dim>1</dim>
					<dim>256</dim>
				</port>
				<port id="1" precision="FP32">
					<dim>16</dim>
					<dim>1</dim>
					<dim>1</dim>
					<dim>256</dim>
				</port>
			</input>
			<output>
				<port id="2" names="530" precision="FP32">
					<dim>16</dim>
					<dim>2</dim>
					<dim>1</dim>
					<dim>256</dim>
				</port>
			</output>
		</layer>
		<layer id="226" name="289" type="Const" version="opset1">
			<data element_type="i64" offset="17580764" shape="4" size="32"/>
			<output>
				<port id="0" precision="I64">
					<dim>4</dim>
				</port>
			</output>
		</layer>
		<layer id="227" name="Transpose_112" type="Transpose" version="opset1">
			<input>
				<port id="0" precision="FP32">
					<dim>16</dim>
					<dim>2</dim>
					<dim>1</dim>
					<dim>256</dim>
				</port>
				<port id="1" precision="I64">
					<dim>4</dim>
				</port>
			</input>
			<output>
				<port id="2" names="533" precision="FP32">
					<dim>16</dim>
					<dim>1</dim>
					<dim>2</dim>
					<dim>256</dim>
				</port>
			</output>
		</layer>
		<layer id="228" name="Constant_113" type="Const" version="opset1">
			<data element_type="i64" offset="17580796" shape="3" size="24"/>
			<output>
				<port id="0" names="534" precision="I64">
					<dim>3</dim>
				</port>
			</output>
		</layer>
		<layer id="229" name="Reshape_114" type="Reshape" version="opset1">
			<data special_zero="true"/>
			<input>
				<port id="0" precision="FP32">
					<dim>16</dim>
					<dim>1</dim>
					<dim>2</dim>
					<dim>256</dim>
				</port>
				<port id="1" precision="I64">
					<dim>3</dim>
				</port>
			</input>
			<output>
				<port id="2" names="535" precision="FP32">
					<dim>16</dim>
					<dim>1</dim>
					<dim>512</dim>
				</port>
			</output>
		</layer>
		<layer id="230" name="289713855" type="Const" version="opset1">
			<data element_type="i64" offset="11281016" shape="1" size="8"/>
			<output>
				<port id="0" precision="I64">
					<dim>1</dim>
				</port>
			</output>
		</layer>
		<layer id="231" name="LSTM_99/Split/forward/UnsqueezeNumDirections/1" type="Unsqueeze" version="opset1">
			<input>
				<port id="0" precision="FP32">
					<dim>1</dim>
					<dim>256</dim>
				</port>
				<port id="1" precision="I64">
					<dim>1</dim>
				</port>
			</input>
			<output>
				<port id="2" precision="FP32">
					<dim>1</dim>
					<dim>1</dim>
					<dim>256</dim>
				</port>
			</output>
		</layer>
		<layer id="232" name="292713813" type="Const" version="opset1">
			<data element_type="i64" offset="11281016" shape="1" size="8"/>
			<output>
				<port id="0" precision="I64">
					<dim>1</dim>
				</port>
			</output>
		</layer>
		<layer id="233" name="LSTM_99/Split/reverse/UnsqueezeNumDirections/1" type="Unsqueeze" version="opset1">
			<input>
				<port id="0" precision="FP32">
					<dim>1</dim>
					<dim>256</dim>
				</port>
				<port id="1" precision="I64">
					<dim>1</dim>
				</port>
			</input>
			<output>
				<port id="2" precision="FP32">
					<dim>1</dim>
					<dim>1</dim>
					<dim>256</dim>
				</port>
			</output>
		</layer>
		<layer id="234" name="LSTM_99/FinalConcat/HiddenState" type="Concat" version="opset1">
			<data axis="0"/>
			<input>
				<port id="0" precision="FP32">
					<dim>1</dim>
					<dim>1</dim>
					<dim>256</dim>
				</port>
				<port id="1" precision="FP32">
					<dim>1</dim>
					<dim>1</dim>
					<dim>256</dim>
				</port>
			</input>
			<output>
				<port id="2" names="402" precision="FP32">
					<dim>2</dim>
					<dim>1</dim>
					<dim>256</dim>
				</port>
			</output>
		</layer>
		<layer id="235" name="286713726" type="Const" version="opset1">
			<data element_type="i64" offset="11281016" shape="1" size="8"/>
			<output>
				<port id="0" precision="I64">
					<dim>1</dim>
				</port>
			</output>
		</layer>
		<layer id="236" name="LSTM_111/Split/forward/UnsqueezeNumDirections/1" type="Unsqueeze" version="opset1">
			<input>
				<port id="0" precision="FP32">
					<dim>1</dim>
					<dim>256</dim>
				</port>
				<port id="1" precision="I64">
					<dim>1</dim>
				</port>
			</input>
			<output>
				<port id="2" precision="FP32">
					<dim>1</dim>
					<dim>1</dim>
					<dim>256</dim>
				</port>
			</output>
		</layer>
		<layer id="237" name="280713894" type="Const" version="opset1">
			<data element_type="i64" offset="11281016" shape="1" size="8"/>
			<output>
				<port id="0" precision="I64">
					<dim>1</dim>
				</port>
			</output>
		</layer>
		<layer id="238" name="LSTM_111/Split/reverse/UnsqueezeNumDirections/1" type="Unsqueeze" version="opset1">
			<input>
				<port id="0" precision="FP32">
					<dim>1</dim>
					<dim>256</dim>
				</port>
				<port id="1" precision="I64">
					<dim>1</dim>
				</port>
			</input>
			<output>
				<port id="2" precision="FP32">
					<dim>1</dim>
					<dim>1</dim>
					<dim>256</dim>
				</port>
			</output>
		</layer>
		<layer id="239" name="LSTM_111/FinalConcat/HiddenState" type="Concat" version="opset1">
			<data axis="0"/>
			<input>
				<port id="0" precision="FP32">
					<dim>1</dim>
					<dim>1</dim>
					<dim>256</dim>
				</port>
				<port id="1" precision="FP32">
					<dim>1</dim>
					<dim>1</dim>
					<dim>256</dim>
				</port>
			</input>
			<output>
				<port id="2" names="531" precision="FP32">
					<dim>2</dim>
					<dim>1</dim>
					<dim>256</dim>
				</port>
			</output>
		</layer>
		<layer id="240" name="Concat_115" type="Concat" version="opset1">
			<data axis="0"/>
			<input>
				<port id="0" precision="FP32">
					<dim>2</dim>
					<dim>1</dim>
					<dim>256</dim>
				</port>
				<port id="1" precision="FP32">
					<dim>2</dim>
					<dim>1</dim>
					<dim>256</dim>
				</port>
			</input>
			<output>
				<port id="2" names="536" precision="FP32">
					<dim>4</dim>
					<dim>1</dim>
					<dim>256</dim>
				</port>
			</output>
		</layer>
		<layer id="241" name="454213654" type="Const" version="opset1">
			<data element_type="i64" offset="11281016" shape="" size="8"/>
			<output>
				<port id="0" precision="I64"/>
			</output>
		</layer>
		<layer id="242" name="454413816" type="Const" version="opset1">
			<data element_type="i64" offset="23880492" shape="2" size="16"/>
			<output>
				<port id="0" precision="I64">
					<dim>2</dim>
				</port>
			</output>
		</layer>
		<layer id="243" name="Slice_120/Split" type="VariadicSplit" version="opset1">
			<input>
				<port id="0" precision="FP32">
					<dim>4</dim>
					<dim>1</dim>
					<dim>256</dim>
				</port>
				<port id="1" precision="I64"/>
				<port id="2" precision="I64">
					<dim>2</dim>
				</port>
			</input>
			<output>
				<port id="3" names="657" precision="FP32">
					<dim>2</dim>
					<dim>1</dim>
					<dim>256</dim>
				</port>
				<port id="4" names="786" precision="FP32">
					<dim>2</dim>
					<dim>1</dim>
					<dim>256</dim>
				</port>
			</output>
		</layer>
		<layer id="244" name="271513840" type="Const" version="opset1">
			<data element_type="i64" offset="11281016" shape="" size="8"/>
			<output>
				<port id="0" precision="I64"/>
			</output>
		</layer>
		<layer id="245" name="Slice_120/Output_0/Data_/DecomposedBiLSTM_0" type="Split" version="opset1">
			<data num_splits="2"/>
			<input>
				<port id="0" precision="FP32">
					<dim>2</dim>
					<dim>1</dim>
					<dim>256</dim>
				</port>
				<port id="1" precision="I64"/>
			</input>
			<output>
				<port id="2" precision="FP32">
					<dim>1</dim>
					<dim>1</dim>
					<dim>256</dim>
				</port>
				<port id="3" precision="FP32">
					<dim>1</dim>
					<dim>1</dim>
					<dim>256</dim>
				</port>
			</output>
		</layer>
		<layer id="246" name="LSTM_125/Split/forward/ShapeOf" type="ShapeOf" version="opset3">
			<data output_type="i64"/>
			<input>
				<port id="0" precision="FP32">
					<dim>16</dim>
					<dim>1</dim>
					<dim>512</dim>
				</port>
			</input>
			<output>
				<port id="1" precision="I64">
					<dim>3</dim>
				</port>
			</output>
		</layer>
		<layer id="247" name="LSTM_125/Split/forward/ShapeOf/Indices296813546" type="Const" version="opset1">
			<data element_type="i32" offset="11281104" shape="1" size="4"/>
			<output>
				<port id="0" precision="I32">
					<dim>1</dim>
				</port>
			</output>
		</layer>
		<layer id="248" name="LSTM_125/Split/forward/ShapeOf/Axis296913870" type="Const" version="opset1">
			<data element_type="i64" offset="11281016" shape="" size="8"/>
			<output>
				<port id="0" precision="I64"/>
			</output>
		</layer>
		<layer id="249" name="LSTM_125/Split/forward/ShapeOf/Gather" type="Gather" version="opset7">
			<data batch_dims="0"/>
			<input>
				<port id="0" precision="I64">
					<dim>3</dim>
				</port>
				<port id="1" precision="I32">
					<dim>1</dim>
				</port>
				<port id="2" precision="I64"/>
			</input>
			<output>
				<port id="3" precision="I64">
					<dim>1</dim>
				</port>
			</output>
		</layer>
		<layer id="250" name="LSTM_125/Split/forward/HiddenStateResizeDim/value297313903" type="Const" version="opset1">
			<data element_type="i64" offset="11281024" shape="1" size="8"/>
			<output>
				<port id="0" precision="I64">
					<dim>1</dim>
				</port>
			</output>
		</layer>
		<layer id="251" name="LSTM_125/Split/forward/HiddenStateResizeDim" type="Concat" version="opset1">
			<data axis="0"/>
			<input>
				<port id="0" precision="I64">
					<dim>1</dim>
				</port>
				<port id="1" precision="I64">
					<dim>1</dim>
				</port>
			</input>
			<output>
				<port id="2" precision="I64">
					<dim>2</dim>
				</port>
			</output>
		</layer>
		<layer id="252" name="LSTM_125/Split/forward/HiddenStateResize" type="Reshape" version="opset1">
			<data special_zero="true"/>
			<input>
				<port id="0" precision="FP32">
					<dim>1</dim>
					<dim>1</dim>
					<dim>256</dim>
				</port>
				<port id="1" precision="I64">
					<dim>2</dim>
				</port>
			</input>
			<output>
				<port id="2" precision="FP32">
					<dim>1</dim>
					<dim>256</dim>
				</port>
			</output>
		</layer>
		<layer id="253" name="290113798" type="Const" version="opset1">
			<data element_type="i64" offset="11281016" shape="1" size="8"/>
			<output>
				<port id="0" precision="I64">
					<dim>1</dim>
				</port>
			</output>
		</layer>
		<layer id="254" name="LSTM_99/Split/forward/UnsqueezeNumDirections/2" type="Unsqueeze" version="opset1">
			<input>
				<port id="0" precision="FP32">
					<dim>1</dim>
					<dim>256</dim>
				</port>
				<port id="1" precision="I64">
					<dim>1</dim>
				</port>
			</input>
			<output>
				<port id="2" precision="FP32">
					<dim>1</dim>
					<dim>1</dim>
					<dim>256</dim>
				</port>
			</output>
		</layer>
		<layer id="255" name="293113708" type="Const" version="opset1">
			<data element_type="i64" offset="11281016" shape="1" size="8"/>
			<output>
				<port id="0" precision="I64">
					<dim>1</dim>
				</port>
			</output>
		</layer>
		<layer id="256" name="LSTM_99/Split/reverse/UnsqueezeNumDirections/2" type="Unsqueeze" version="opset1">
			<input>
				<port id="0" precision="FP32">
					<dim>1</dim>
					<dim>256</dim>
				</port>
				<port id="1" precision="I64">
					<dim>1</dim>
				</port>
			</input>
			<output>
				<port id="2" precision="FP32">
					<dim>1</dim>
					<dim>1</dim>
					<dim>256</dim>
				</port>
			</output>
		</layer>
		<layer id="257" name="LSTM_99/FinalConcat/CellState" type="Concat" version="opset1">
			<data axis="0"/>
			<input>
				<port id="0" precision="FP32">
					<dim>1</dim>
					<dim>1</dim>
					<dim>256</dim>
				</port>
				<port id="1" precision="FP32">
					<dim>1</dim>
					<dim>1</dim>
					<dim>256</dim>
				</port>
			</input>
			<output>
				<port id="2" names="403" precision="FP32">
					<dim>2</dim>
					<dim>1</dim>
					<dim>256</dim>
				</port>
			</output>
		</layer>
		<layer id="258" name="287113660" type="Const" version="opset1">
			<data element_type="i64" offset="11281016" shape="1" size="8"/>
			<output>
				<port id="0" precision="I64">
					<dim>1</dim>
				</port>
			</output>
		</layer>
		<layer id="259" name="LSTM_111/Split/forward/UnsqueezeNumDirections/2" type="Unsqueeze" version="opset1">
			<input>
				<port id="0" precision="FP32">
					<dim>1</dim>
					<dim>256</dim>
				</port>
				<port id="1" precision="I64">
					<dim>1</dim>
				</port>
			</input>
			<output>
				<port id="2" precision="FP32">
					<dim>1</dim>
					<dim>1</dim>
					<dim>256</dim>
				</port>
			</output>
		</layer>
		<layer id="260" name="281113696" type="Const" version="opset1">
			<data element_type="i64" offset="11281016" shape="1" size="8"/>
			<output>
				<port id="0" precision="I64">
					<dim>1</dim>
				</port>
			</output>
		</layer>
		<layer id="261" name="LSTM_111/Split/reverse/UnsqueezeNumDirections/2" type="Unsqueeze" version="opset1">
			<input>
				<port id="0" precision="FP32">
					<dim>1</dim>
					<dim>256</dim>
				</port>
				<port id="1" precision="I64">
					<dim>1</dim>
				</port>
			</input>
			<output>
				<port id="2" precision="FP32">
					<dim>1</dim>
					<dim>1</dim>
					<dim>256</dim>
				</port>
			</output>
		</layer>
		<layer id="262" name="LSTM_111/FinalConcat/CellState" type="Concat" version="opset1">
			<data axis="0"/>
			<input>
				<port id="0" precision="FP32">
					<dim>1</dim>
					<dim>1</dim>
					<dim>256</dim>
				</port>
				<port id="1" precision="FP32">
					<dim>1</dim>
					<dim>1</dim>
					<dim>256</dim>
				</port>
			</input>
			<output>
				<port id="2" names="532" precision="FP32">
					<dim>2</dim>
					<dim>1</dim>
					<dim>256</dim>
				</port>
			</output>
		</layer>
		<layer id="263" name="Concat_116" type="Concat" version="opset1">
			<data axis="0"/>
			<input>
				<port id="0" precision="FP32">
					<dim>2</dim>
					<dim>1</dim>
					<dim>256</dim>
				</port>
				<port id="1" precision="FP32">
					<dim>2</dim>
					<dim>1</dim>
					<dim>256</dim>
				</port>
			</input>
			<output>
				<port id="2" names="537" precision="FP32">
					<dim>4</dim>
					<dim>1</dim>
					<dim>256</dim>
				</port>
			</output>
		</layer>
		<layer id="264" name="454713579" type="Const" version="opset1">
			<data element_type="i64" offset="11281016" shape="" size="8"/>
			<output>
				<port id="0" precision="I64"/>
			</output>
		</layer>
		<layer id="265" name="454913900" type="Const" version="opset1">
			<data element_type="i64" offset="23880492" shape="2" size="16"/>
			<output>
				<port id="0" precision="I64">
					<dim>2</dim>
				</port>
			</output>
		</layer>
		<layer id="266" name="Slice_124/Split" type="VariadicSplit" version="opset1">
			<input>
				<port id="0" precision="FP32">
					<dim>4</dim>
					<dim>1</dim>
					<dim>256</dim>
				</port>
				<port id="1" precision="I64"/>
				<port id="2" precision="I64">
					<dim>2</dim>
				</port>
			</input>
			<output>
				<port id="3" names="661" precision="FP32">
					<dim>2</dim>
					<dim>1</dim>
					<dim>256</dim>
				</port>
				<port id="4" names="790" precision="FP32">
					<dim>2</dim>
					<dim>1</dim>
					<dim>256</dim>
				</port>
			</output>
		</layer>
		<layer id="267" name="272013921" type="Const" version="opset1">
			<data element_type="i64" offset="11281016" shape="" size="8"/>
			<output>
				<port id="0" precision="I64"/>
			</output>
		</layer>
		<layer id="268" name="Slice_124/Output_0/Data_/DecomposedBiLSTM_0" type="Split" version="opset1">
			<data num_splits="2"/>
			<input>
				<port id="0" precision="FP32">
					<dim>2</dim>
					<dim>1</dim>
					<dim>256</dim>
				</port>
				<port id="1" precision="I64"/>
			</input>
			<output>
				<port id="2" precision="FP32">
					<dim>1</dim>
					<dim>1</dim>
					<dim>256</dim>
				</port>
				<port id="3" precision="FP32">
					<dim>1</dim>
					<dim>1</dim>
					<dim>256</dim>
				</port>
			</output>
		</layer>
		<layer id="269" name="LSTM_125/Split/forward/CellStateResize" type="Reshape" version="opset1">
			<data special_zero="true"/>
			<input>
				<port id="0" precision="FP32">
					<dim>1</dim>
					<dim>1</dim>
					<dim>256</dim>
				</port>
				<port id="1" precision="I64">
					<dim>2</dim>
				</port>
			</input>
			<output>
				<port id="2" precision="FP32">
					<dim>1</dim>
					<dim>256</dim>
				</port>
			</output>
		</layer>
		<layer id="270" name="LSTM_125/Split/forward/TensorIterator" type="TensorIterator" version="opset1">
			<port_map>
				<input axis="0" end="-1" external_port_id="0" internal_layer_id="2" part_size="1" start="0" stride="1"/>
				<input external_port_id="1" internal_layer_id="1"/>
				<input external_port_id="2" internal_layer_id="0"/>
				<output axis="0" end="-1" external_port_id="3" internal_layer_id="11" part_size="1" start="0" stride="1"/>
				<output external_port_id="4" internal_layer_id="13"/>
				<output external_port_id="5" internal_layer_id="12"/>
			</port_map>
			<back_edges>
				<edge from-layer="13" to-layer="1"/>
				<edge from-layer="12" to-layer="0"/>
			</back_edges>
			<input>
				<port id="0" precision="FP32">
					<dim>16</dim>
					<dim>1</dim>
					<dim>512</dim>
				</port>
				<port id="1" precision="FP32">
					<dim>1</dim>
					<dim>256</dim>
				</port>
				<port id="2" precision="FP32">
					<dim>1</dim>
					<dim>256</dim>
				</port>
			</input>
			<output>
				<port id="3" precision="FP32">
					<dim>16</dim>
					<dim>1</dim>
					<dim>256</dim>
				</port>
				<port id="4" precision="FP32">
					<dim>1</dim>
					<dim>256</dim>
				</port>
				<port id="5" precision="FP32">
					<dim>1</dim>
					<dim>256</dim>
				</port>
			</output>
			<body>
				<layers>
					<layer id="0" name="24" type="Parameter" version="opset1">
						<data element_type="f32" shape="1, 256"/>
						<output>
							<port id="0" precision="FP32">
								<dim>1</dim>
								<dim>256</dim>
							</port>
						</output>
					</layer>
					<layer id="1" name="22" type="Parameter" version="opset1">
						<data element_type="f32" shape="1, 256"/>
						<output>
							<port id="0" precision="FP32">
								<dim>1</dim>
								<dim>256</dim>
							</port>
						</output>
					</layer>
					<layer id="2" name="20" type="Parameter" version="opset1">
						<data element_type="f32" shape="1, 1, 512"/>
						<output>
							<port id="0" precision="FP32">
								<dim>1</dim>
								<dim>1</dim>
								<dim>512</dim>
							</port>
						</output>
					</layer>
					<layer id="3" name="7250" type="Const" version="opset1">
						<data element_type="i64" offset="11281016" shape="1" size="8"/>
						<output>
							<port id="0" precision="I64">
								<dim>1</dim>
							</port>
						</output>
					</layer>
					<layer id="4" name="LSTM_125/Split/forward/input_squeeze" type="Squeeze" version="opset1">
						<input>
							<port id="0" precision="FP32">
								<dim>1</dim>
								<dim>1</dim>
								<dim>512</dim>
							</port>
							<port id="1" precision="I64">
								<dim>1</dim>
							</port>
						</input>
						<output>
							<port id="2" precision="FP32">
								<dim>1</dim>
								<dim>512</dim>
							</port>
						</output>
					</layer>
					<layer id="5" name="LSTM_125/Split/forward/LSTMCell/Split197253" type="Const" version="opset1">
						<data element_type="f32" offset="23880508" shape="1024, 512" size="2097152"/>
						<output>
							<port id="0" precision="FP32">
								<dim>1024</dim>
								<dim>512</dim>
							</port>
						</output>
					</layer>
					<layer id="6" name="LSTM_125/Split/forward/LSTMCell/Split198256" type="Const" version="opset1">
						<data element_type="f32" offset="25977660" shape="1024, 256" size="1048576"/>
						<output>
							<port id="0" precision="FP32">
								<dim>1024</dim>
								<dim>256</dim>
							</port>
						</output>
					</layer>
					<layer id="7" name="LSTM_125/Split/forward/inport/2244" type="Const" version="opset1">
						<data element_type="f32" offset="27026236" shape="1024" size="4096"/>
						<output>
							<port id="0" precision="FP32">
								<dim>1024</dim>
							</port>
						</output>
					</layer>
					<layer id="8" name="LSTM_125/Split/forward/LSTMCell" type="LSTMCell" version="opset4">
						<data activations="sigmoid, tanh, tanh" activations_alpha="" activations_beta="" clip="0" hidden_size="256"/>
						<input>
							<port id="0" precision="FP32">
								<dim>1</dim>
								<dim>512</dim>
							</port>
							<port id="1" precision="FP32">
								<dim>1</dim>
								<dim>256</dim>
							</port>
							<port id="2" precision="FP32">
								<dim>1</dim>
								<dim>256</dim>
							</port>
							<port id="3" precision="FP32">
								<dim>1024</dim>
								<dim>512</dim>
							</port>
							<port id="4" precision="FP32">
								<dim>1024</dim>
								<dim>256</dim>
							</port>
							<port id="5" precision="FP32">
								<dim>1024</dim>
							</port>
						</input>
						<output>
							<port id="6" precision="FP32">
								<dim>1</dim>
								<dim>256</dim>
							</port>
							<port id="7" precision="FP32">
								<dim>1</dim>
								<dim>256</dim>
							</port>
						</output>
					</layer>
					<layer id="9" name="15247" type="Const" version="opset1">
						<data element_type="i64" offset="11281016" shape="1" size="8"/>
						<output>
							<port id="0" precision="I64">
								<dim>1</dim>
							</port>
						</output>
					</layer>
					<layer id="10" name="LSTM_125/Split/forwardoutput_unsqueeze" type="Unsqueeze" version="opset1">
						<input>
							<port id="0" precision="FP32">
								<dim>1</dim>
								<dim>256</dim>
							</port>
							<port id="1" precision="I64">
								<dim>1</dim>
							</port>
						</input>
						<output>
							<port id="2" precision="FP32">
								<dim>1</dim>
								<dim>1</dim>
								<dim>256</dim>
							</port>
						</output>
					</layer>
					<layer id="11" name="18/sink_port_0" type="Result" version="opset1">
						<input>
							<port id="0" precision="FP32">
								<dim>1</dim>
								<dim>1</dim>
								<dim>256</dim>
							</port>
						</input>
					</layer>
					<layer id="12" name="LSTM_125/Split/forward/outport/1/sink_port_0" type="Result" version="opset1">
						<input>
							<port id="0" precision="FP32">
								<dim>1</dim>
								<dim>256</dim>
							</port>
						</input>
					</layer>
					<layer id="13" name="LSTM_125/Split/forward/outport/0/sink_port_0" type="Result" version="opset1">
						<input>
							<port id="0" precision="FP32">
								<dim>1</dim>
								<dim>256</dim>
							</port>
						</input>
					</layer>
				</layers>
				<edges>
					<edge from-layer="0" from-port="0" to-layer="8" to-port="2"/>
					<edge from-layer="1" from-port="0" to-layer="8" to-port="1"/>
					<edge from-layer="2" from-port="0" to-layer="4" to-port="0"/>
					<edge from-layer="3" from-port="0" to-layer="4" to-port="1"/>
					<edge from-layer="4" from-port="2" to-layer="8" to-port="0"/>
					<edge from-layer="5" from-port="0" to-layer="8" to-port="3"/>
					<edge from-layer="6" from-port="0" to-layer="8" to-port="4"/>
					<edge from-layer="7" from-port="0" to-layer="8" to-port="5"/>
					<edge from-layer="8" from-port="6" to-layer="10" to-port="0"/>
					<edge from-layer="8" from-port="7" to-layer="12" to-port="0"/>
					<edge from-layer="8" from-port="6" to-layer="13" to-port="0"/>
					<edge from-layer="9" from-port="0" to-layer="10" to-port="1"/>
					<edge from-layer="10" from-port="2" to-layer="11" to-port="0"/>
				</edges>
			</body>
		</layer>
		<layer id="271" name="295313540" type="Const" version="opset1">
			<data element_type="i64" offset="14430932" shape="1" size="8"/>
			<output>
				<port id="0" precision="I64">
					<dim>1</dim>
				</port>
			</output>
		</layer>
		<layer id="272" name="LSTM_125/Split/forward/UnsqueezeNumDirections/0" type="Unsqueeze" version="opset1">
			<input>
				<port id="0" precision="FP32">
					<dim>16</dim>
					<dim>1</dim>
					<dim>256</dim>
				</port>
				<port id="1" precision="I64">
					<dim>1</dim>
				</port>
			</input>
			<output>
				<port id="2" precision="FP32">
					<dim>16</dim>
					<dim>1</dim>
					<dim>1</dim>
					<dim>256</dim>
				</port>
			</output>
		</layer>
		<layer id="273" name="LSTM_125/Split/reverse/ShapeOf" type="ShapeOf" version="opset3">
			<data output_type="i64"/>
			<input>
				<port id="0" precision="FP32">
					<dim>16</dim>
					<dim>1</dim>
					<dim>512</dim>
				</port>
			</input>
			<output>
				<port id="1" precision="I64">
					<dim>3</dim>
				</port>
			</output>
		</layer>
		<layer id="274" name="LSTM_125/Split/reverse/ShapeOf/Indices278813945" type="Const" version="opset1">
			<data element_type="i32" offset="11281104" shape="1" size="4"/>
			<output>
				<port id="0" precision="I32">
					<dim>1</dim>
				</port>
			</output>
		</layer>
		<layer id="275" name="LSTM_125/Split/reverse/ShapeOf/Axis278913768" type="Const" version="opset1">
			<data element_type="i64" offset="11281016" shape="" size="8"/>
			<output>
				<port id="0" precision="I64"/>
			</output>
		</layer>
		<layer id="276" name="LSTM_125/Split/reverse/ShapeOf/Gather" type="Gather" version="opset7">
			<data batch_dims="0"/>
			<input>
				<port id="0" precision="I64">
					<dim>3</dim>
				</port>
				<port id="1" precision="I32">
					<dim>1</dim>
				</port>
				<port id="2" precision="I64"/>
			</input>
			<output>
				<port id="3" precision="I64">
					<dim>1</dim>
				</port>
			</output>
		</layer>
		<layer id="277" name="LSTM_125/Split/reverse/HiddenStateResizeDim/value279313618" type="Const" version="opset1">
			<data element_type="i64" offset="11281024" shape="1" size="8"/>
			<output>
				<port id="0" precision="I64">
					<dim>1</dim>
				</port>
			</output>
		</layer>
		<layer id="278" name="LSTM_125/Split/reverse/HiddenStateResizeDim" type="Concat" version="opset1">
			<data axis="0"/>
			<input>
				<port id="0" precision="I64">
					<dim>1</dim>
				</port>
				<port id="1" precision="I64">
					<dim>1</dim>
				</port>
			</input>
			<output>
				<port id="2" precision="I64">
					<dim>2</dim>
				</port>
			</output>
		</layer>
		<layer id="279" name="LSTM_125/Split/reverse/HiddenStateResize" type="Reshape" version="opset1">
			<data special_zero="true"/>
			<input>
				<port id="0" precision="FP32">
					<dim>1</dim>
					<dim>1</dim>
					<dim>256</dim>
				</port>
				<port id="1" precision="I64">
					<dim>2</dim>
				</port>
			</input>
			<output>
				<port id="2" precision="FP32">
					<dim>1</dim>
					<dim>256</dim>
				</port>
			</output>
		</layer>
		<layer id="280" name="LSTM_125/Split/reverse/CellStateResize" type="Reshape" version="opset1">
			<data special_zero="true"/>
			<input>
				<port id="0" precision="FP32">
					<dim>1</dim>
					<dim>1</dim>
					<dim>256</dim>
				</port>
				<port id="1" precision="I64">
					<dim>2</dim>
				</port>
			</input>
			<output>
				<port id="2" precision="FP32">
					<dim>1</dim>
					<dim>256</dim>
				</port>
			</output>
		</layer>
		<layer id="281" name="LSTM_125/Split/reverse/TensorIterator" type="TensorIterator" version="opset1">
			<port_map>
				<input axis="0" end="0" external_port_id="0" internal_layer_id="2" part_size="1" start="-1" stride="-1"/>
				<input external_port_id="1" internal_layer_id="1"/>
				<input external_port_id="2" internal_layer_id="0"/>
				<output axis="0" end="0" external_port_id="3" internal_layer_id="11" part_size="1" start="-1" stride="-1"/>
				<output external_port_id="4" internal_layer_id="13"/>
				<output external_port_id="5" internal_layer_id="12"/>
			</port_map>
			<back_edges>
				<edge from-layer="13" to-layer="1"/>
				<edge from-layer="12" to-layer="0"/>
			</back_edges>
			<input>
				<port id="0" precision="FP32">
					<dim>16</dim>
					<dim>1</dim>
					<dim>512</dim>
				</port>
				<port id="1" precision="FP32">
					<dim>1</dim>
					<dim>256</dim>
				</port>
				<port id="2" precision="FP32">
					<dim>1</dim>
					<dim>256</dim>
				</port>
			</input>
			<output>
				<port id="3" precision="FP32">
					<dim>16</dim>
					<dim>1</dim>
					<dim>256</dim>
				</port>
				<port id="4" precision="FP32">
					<dim>1</dim>
					<dim>256</dim>
				</port>
				<port id="5" precision="FP32">
					<dim>1</dim>
					<dim>256</dim>
				</port>
			</output>
			<body>
				<layers>
					<layer id="0" name="24" type="Parameter" version="opset1">
						<data element_type="f32" shape="1, 256"/>
						<output>
							<port id="0" precision="FP32">
								<dim>1</dim>
								<dim>256</dim>
							</port>
						</output>
					</layer>
					<layer id="1" name="22" type="Parameter" version="opset1">
						<data element_type="f32" shape="1, 256"/>
						<output>
							<port id="0" precision="FP32">
								<dim>1</dim>
								<dim>256</dim>
							</port>
						</output>
					</layer>
					<layer id="2" name="20" type="Parameter" version="opset1">
						<data element_type="f32" shape="1, 1, 512"/>
						<output>
							<port id="0" precision="FP32">
								<dim>1</dim>
								<dim>1</dim>
								<dim>512</dim>
							</port>
						</output>
					</layer>
					<layer id="3" name="7256" type="Const" version="opset1">
						<data element_type="i64" offset="11281016" shape="1" size="8"/>
						<output>
							<port id="0" precision="I64">
								<dim>1</dim>
							</port>
						</output>
					</layer>
					<layer id="4" name="LSTM_125/Split/reverse/input_squeeze" type="Squeeze" version="opset1">
						<input>
							<port id="0" precision="FP32">
								<dim>1</dim>
								<dim>1</dim>
								<dim>512</dim>
							</port>
							<port id="1" precision="I64">
								<dim>1</dim>
							</port>
						</input>
						<output>
							<port id="2" precision="FP32">
								<dim>1</dim>
								<dim>512</dim>
							</port>
						</output>
					</layer>
					<layer id="5" name="LSTM_125/Split/reverse/LSTMCell/Split197253" type="Const" version="opset1">
						<data element_type="f32" offset="27030332" shape="1024, 512" size="2097152"/>
						<output>
							<port id="0" precision="FP32">
								<dim>1024</dim>
								<dim>512</dim>
							</port>
						</output>
					</layer>
					<layer id="6" name="LSTM_125/Split/reverse/LSTMCell/Split198247" type="Const" version="opset1">
						<data element_type="f32" offset="29127484" shape="1024, 256" size="1048576"/>
						<output>
							<port id="0" precision="FP32">
								<dim>1024</dim>
								<dim>256</dim>
							</port>
						</output>
					</layer>
					<layer id="7" name="LSTM_125/Split/reverse/inport/2250" type="Const" version="opset1">
						<data element_type="f32" offset="30176060" shape="1024" size="4096"/>
						<output>
							<port id="0" precision="FP32">
								<dim>1024</dim>
							</port>
						</output>
					</layer>
					<layer id="8" name="LSTM_125/Split/reverse/LSTMCell" type="LSTMCell" version="opset4">
						<data activations="sigmoid, tanh, tanh" activations_alpha="" activations_beta="" clip="0" hidden_size="256"/>
						<input>
							<port id="0" precision="FP32">
								<dim>1</dim>
								<dim>512</dim>
							</port>
							<port id="1" precision="FP32">
								<dim>1</dim>
								<dim>256</dim>
							</port>
							<port id="2" precision="FP32">
								<dim>1</dim>
								<dim>256</dim>
							</port>
…
				<output axis="0" end="0" external_port_id="3" internal_layer_id="11" part_size="1" start="-1" stride="-1"/>
				<output external_port_id="4" internal_layer_id="13"/>
				<output external_port_id="5" internal_layer_id="12"/>
			</port_map>
			<back_edges>
				<edge from-layer="13" to-layer="1"/>
				<edge from-layer="12" to-layer="0"/>
			</back_edges>
			<input>
				<port id="0" precision="FP32">
					<dim>16</dim>
					<dim>1</dim>
					<dim>512</dim>
				</port>
				<port id="1" precision="FP32">
					<dim>1</dim>
					<dim>256</dim>
				</port>
				<port id="2" precision="FP32">
					<dim>1</dim>
					<dim>256</dim>
				</port>
			</input>
			<output>
				<port id="3" precision="FP32">
					<dim>16</dim>
					<dim>1</dim>
					<dim>256</dim>
				</port>
				<port id="4" precision="FP32">
					<dim>1</dim>
					<dim>256</dim>
				</port>
				<port id="5" precision="FP32">
					<dim>1</dim>
					<dim>256</dim>
				</port>
			</output>
			<body>
				<layers>
					<layer id="0" name="24" type="Parameter" version="opset1">
						<data element_type="f32" shape="1, 256"/>
						<output>
							<port id="0" precision="FP32">
								<dim>1</dim>
								<dim>256</dim>
							</port>
						</output>
					</layer>
					<layer id="1" name="22" type="Parameter" version="opset1">
						<data element_type="f32" shape="1, 256"/>
						<output>
							<port id="0" precision="FP32">
								<dim>1</dim>
								<dim>256</dim>
							</port>
						</output>
					</layer>
					<layer id="2" name="20" type="Parameter" version="opset1">
						<data element_type="f32" shape="1, 1, 512"/>
						<output>
							<port id="0" precision="FP32">
								<dim>1</dim>
								<dim>1</dim>
								<dim>512</dim>
							</port>
						</output>
					</layer>
					<layer id="3" name="7253" type="Const" version="opset1">
						<data element_type="i64" offset="11281016" shape="1" size="8"/>
						<output>
							<port id="0" precision="I64">
								<dim>1</dim>
							</port>
						</output>
					</layer>
					<layer id="4" name="LSTM_137/Split/reverse/input_squeeze" type="Squeeze" version="opset1">
						<input>
							<port id="0" precision="FP32">
								<dim>1</dim>
								<dim>1</dim>
								<dim>512</dim>
							</port>
							<port id="1" precision="I64">
								<dim>1</dim>
							</port>
						</input>
						<output>
							<port id="2" precision="FP32">
								<dim>1</dim>
								<dim>512</dim>
							</port>
						</output>
					</layer>
					<layer id="5" name="LSTM_137/Split/reverse/LSTMCell/Split197256" type="Const" version="opset1">
						<data element_type="f32" offset="33329980" shape="1024, 512" size="2097152"/>
						<output>
							<port id="0" precision="FP32">
								<dim>1024</dim>
								<dim>512</dim>
							</port>
						</output>
					</layer>
					<layer id="6" name="LSTM_137/Split/reverse/LSTMCell/Split198247" type="Const" version="opset1">
						<data element_type="f32" offset="35427132" shape="1024, 256" size="1048576"/>
						<output>
							<port id="0" precision="FP32">
								<dim>1024</dim>
								<dim>256</dim>
							</port>
						</output>
					</layer>
					<layer id="7" name="LSTM_137/Split/reverse/inport/2244" type="Const" version="opset1">
						<data element_type="f32" offset="36475708" shape="1024" size="4096"/>
						<output>
							<port id="0" precision="FP32">
								<dim>1024</dim>
							</port>
						</output>
					</layer>
					<layer id="8" name="LSTM_137/Split/reverse/LSTMCell" type="LSTMCell" version="opset4">
						<data activations="sigmoid, tanh, tanh" activations_alpha="" activations_beta="" clip="0" hidden_size="256"/>
						<input>
							<port id="0" precision="FP32">
								<dim>1</dim>
								<dim>512</dim>
							</port>
							<port id="1" precision="FP32">
								<dim>1</dim>
								<dim>256</dim>
							</port>
							<port id="2" precision="FP32">
								<dim>1</dim>
								<dim>256</dim>
							</port>
							<port id="3" precision="FP32">
								<dim>1024</dim>
								<dim>512</dim>
							</port>
							<port id="4" precision="FP32">
								<dim>1024</dim>
								<dim>256</dim>
							</port>
							<port id="5" precision="FP32">
								<dim>1024</dim>
							</port>
						</input>
						<output>
							<port id="6" precision="FP32">
								<dim>1</dim>
								<dim>256</dim>
							</port>
							<port id="7" precision="FP32">
								<dim>1</dim>
								<dim>256</dim>
							</port>
						</output>
					</layer>
					<layer id="9" name="15250" type="Const" version="opset1">
						<data element_type="i64" offset="11281016" shape="1" size="8"/>
						<output>
							<port id="0" precision="I64">
								<dim>1</dim>
							</port>
						</output>
					</layer>
					<layer id="10" name="LSTM_137/Split/reverseoutput_unsqueeze" type="Unsqueeze" version="opset1">
						<input>
							<port id="0" precision="FP32">
								<dim>1</dim>
								<dim>256</dim>
							</port>
							<port id="1" precision="I64">
								<dim>1</dim>
							</port>
						</input>
						<output>
							<port id="2" precision="FP32">
								<dim>1</dim>
								<dim>1</dim>
								<dim>256</dim>
							</port>
						</output>
					</layer>
					<layer id="11" name="18/sink_port_0" type="Result" version="opset1">
						<input>
							<port id="0" precision="FP32">
								<dim>1</dim>
								<dim>1</dim>
								<dim>256</dim>
							</port>
						</input>
					</layer>
					<layer id="12" name="LSTM_137/Split/reverse/outport/1/sink_port_0" type="Result" version="opset1">
						<input>
							<port id="0" precision="FP32">
								<dim>1</dim>
								<dim>256</dim>
							</port>
						</input>
					</layer>
					<layer id="13" name="LSTM_137/Split/reverse/outport/0/sink_port_0" type="Result" version="opset1">
						<input>
							<port id="0" precision="FP32">
								<dim>1</dim>
								<dim>256</dim>
							</port>
						</input>
					</layer>
				</layers>
				<edges>
					<edge from-layer="0" from-port="0" to-layer="8" to-port="2"/>
					<edge from-layer="1" from-port="0" to-layer="8" to-port="1"/>
					<edge from-layer="2" from-port="0" to-layer="4" to-port="0"/>
					<edge from-layer="3" from-port="0" to-layer="4" to-port="1"/>
					<edge from-layer="4" from-port="2" to-layer="8" to-port="0"/>
					<edge from-layer="5" from-port="0" to-layer="8" to-port="3"/>
					<edge from-layer="6" from-port="0" to-layer="8" to-port="4"/>
					<edge from-layer="7" from-port="0" to-layer="8" to-port="5"/>
					<edge from-layer="8" from-port="6" to-layer="10" to-port="0"/>
					<edge from-layer="8" from-port="7" to-layer="12" to-port="0"/>
					<edge from-layer="8" from-port="6" to-layer="13" to-port="0"/>
					<edge from-layer="9" from-port="0" to-layer="10" to-port="1"/>
					<edge from-layer="10" from-port="2" to-layer="11" to-port="0"/>
				</edges>
			</body>
		</layer>
		<layer id="313" name="283313573" type="Const" version="opset1">
			<data element_type="i64" offset="14430932" shape="1" size="8"/>
			<output>
				<port id="0" precision="I64">
					<dim>1</dim>
				</port>
			</output>
		</layer>
		<layer id="314" name="LSTM_137/Split/reverse/UnsqueezeNumDirections/0" type="Unsqueeze" version="opset1">
			<input>
				<port id="0" precision="FP32">
					<dim>16</dim>
					<dim>1</dim>
					<dim>256</dim>
				</port>
				<port id="1" precision="I64">
					<dim>1</dim>
				</port>
			</input>
			<output>
				<port id="2" precision="FP32">
					<dim>16</dim>
					<dim>1</dim>
					<dim>1</dim>
					<dim>256</dim>
				</port>
			</output>
		</layer>
		<layer id="315" name="LSTM_137/FinalConcat/Data" type="Concat" version="opset1">
			<data axis="1"/>
			<input>
				<port id="0" precision="FP32">
					<dim>16</dim>
					<dim>1</dim>
					<dim>1</dim>
					<dim>256</dim>
				</port>
				<port id="1" precision="FP32">
					<dim>16</dim>
					<dim>1</dim>
					<dim>1</dim>
					<dim>256</dim>
				</port>
			</input>
			<output>
				<port id="2" names="791" precision="FP32">
					<dim>16</dim>
					<dim>2</dim>
					<dim>1</dim>
					<dim>256</dim>
				</port>
			</output>
		</layer>
		<layer id="316" name="297" type="Const" version="opset1">
			<data element_type="i64" offset="17580764" shape="4" size="32"/>
			<output>
				<port id="0" precision="I64">
					<dim>4</dim>
				</port>
			</output>
		</layer>
		<layer id="317" name="Transpose_138" type="Transpose" version="opset1">
			<input>
				<port id="0" precision="FP32">
					<dim>16</dim>
					<dim>2</dim>
					<dim>1</dim>
					<dim>256</dim>
				</port>
				<port id="1" precision="I64">
					<dim>4</dim>
				</port>
			</input>
			<output>
				<port id="2" names="794" precision="FP32">
					<dim>16</dim>
					<dim>1</dim>
					<dim>2</dim>
					<dim>256</dim>
				</port>
			</output>
		</layer>
		<layer id="318" name="Constant_139" type="Const" version="opset1">
			<data element_type="i64" offset="17580796" shape="3" size="24"/>
			<output>
				<port id="0" names="795" precision="I64">
					<dim>3</dim>
				</port>
			</output>
		</layer>
		<layer id="319" name="Reshape_140" type="Reshape" version="opset1">
			<data special_zero="true"/>
			<input>
				<port id="0" precision="FP32">
					<dim>16</dim>
					<dim>1</dim>
					<dim>2</dim>
					<dim>256</dim>
				</port>
				<port id="1" precision="I64">
					<dim>3</dim>
				</port>
			</input>
			<output>
				<port id="2" names="796" precision="FP32">
					<dim>16</dim>
					<dim>1</dim>
					<dim>512</dim>
				</port>
			</output>
		</layer>
		<layer id="320" name="294" type="Const" version="opset1">
			<data element_type="i64" offset="36479804" shape="3" size="24"/>
			<output>
				<port id="0" precision="I64">
					<dim>3</dim>
				</port>
			</output>
		</layer>
		<layer id="321" name="Transpose_141" type="Transpose" version="opset1">
			<input>
				<port id="0" precision="FP32">
					<dim>16</dim>
					<dim>1</dim>
					<dim>512</dim>
				</port>
				<port id="1" precision="I64">
					<dim>3</dim>
				</port>
			</input>
			<output>
				<port id="2" names="797" precision="FP32">
					<dim>1</dim>
					<dim>16</dim>
					<dim>512</dim>
				</port>
			</output>
		</layer>
		<layer id="322" name="978" type="Const" version="opset1">
			<data element_type="f32" offset="36479828" shape="37, 512" size="75776"/>
			<output>
				<port id="0" names="978" precision="FP32">
					<dim>37</dim>
					<dim>512</dim>
				</port>
			</output>
		</layer>
		<layer id="323" name="MatMul_142" type="MatMul" version="opset1">
			<data transpose_a="false" transpose_b="true"/>
			<input>
				<port id="0" precision="FP32">
					<dim>1</dim>
					<dim>16</dim>
					<dim>512</dim>
				</port>
				<port id="1" precision="FP32">
					<dim>37</dim>
					<dim>512</dim>
				</port>
			</input>
			<output>
				<port id="2" names="799" precision="FP32">
					<dim>1</dim>
					<dim>16</dim>
					<dim>37</dim>
				</port>
			</output>
		</layer>
		<layer id="324" name="head.fc.bias" type="Const" version="opset1">
			<data element_type="f32" offset="36555604" shape="1, 1, 37" size="148"/>
			<output>
				<port id="0" names="head.fc.bias" precision="FP32">
					<dim>1</dim>
					<dim>1</dim>
					<dim>37</dim>
				</port>
			</output>
		</layer>
		<layer id="325" name="Add_143" type="Add" version="opset1">
			<data auto_broadcast="numpy"/>
			<input>
				<port id="0" precision="FP32">
					<dim>1</dim>
					<dim>16</dim>
					<dim>37</dim>
				</port>
				<port id="1" precision="FP32">
					<dim>1</dim>
					<dim>1</dim>
					<dim>37</dim>
				</port>
			</input>
			<output>
				<port id="2" names="800" precision="FP32">
					<dim>1</dim>
					<dim>16</dim>
					<dim>37</dim>
				</port>
			</output>
		</layer>
		<layer id="326" name="296" type="Const" version="opset1">
			<data element_type="i64" offset="36479804" shape="3" size="24"/>
			<output>
				<port id="0" precision="I64">
					<dim>3</dim>
				</port>
			</output>
		</layer>
		<layer id="327" name="logits" type="Transpose" version="opset1">
			<input>
				<port id="0" precision="FP32">
					<dim>1</dim>
					<dim>16</dim>
					<dim>37</dim>
				</port>
				<port id="1" precision="I64">
					<dim>3</dim>
				</port>
			</input>
			<output>
				<port id="2" names="logits" precision="FP32">
					<dim>16</dim>
					<dim>1</dim>
					<dim>37</dim>
				</port>
			</output>
		</layer>
		<layer id="328" name="logits/sink_port_0" type="Result" version="opset1">
			<input>
				<port id="0" precision="FP32">
					<dim>16</dim>
					<dim>1</dim>
					<dim>37</dim>
				</port>
			</input>
		</layer>
		<layer id="329" name="275113828" type="Const" version="opset1">
			<data element_type="i64" offset="11281016" shape="1" size="8"/>
			<output>
				<port id="0" precision="I64">
					<dim>1</dim>
				</port>
			</output>
		</layer>
		<layer id="330" name="LSTM_137/Split/forward/UnsqueezeNumDirections/2" type="Unsqueeze" version="opset1">
			<input>
				<port id="0" precision="FP32">
					<dim>1</dim>
					<dim>256</dim>
				</port>
				<port id="1" precision="I64">
					<dim>1</dim>
				</port>
			</input>
			<output>
				<port id="2" precision="FP32">
					<dim>1</dim>
					<dim>1</dim>
					<dim>256</dim>
				</port>
			</output>
		</layer>
		<layer id="331" name="284113774" type="Const" version="opset1">
			<data element_type="i64" offset="11281016" shape="1" size="8"/>
			<output>
				<port id="0" precision="I64">
					<dim>1</dim>
				</port>
			</output>
		</layer>
		<layer id="332" name="LSTM_137/Split/reverse/UnsqueezeNumDirections/2" type="Unsqueeze" version="opset1">
			<input>
				<port id="0" precision="FP32">
					<dim>1</dim>
					<dim>256</dim>
				</port>
				<port id="1" precision="I64">
					<dim>1</dim>
				</port>
			</input>
			<output>
				<port id="2" precision="FP32">
					<dim>1</dim>
					<dim>1</dim>
					<dim>256</dim>
				</port>
			</output>
		</layer>
		<layer id="333" name="LSTM_137/FinalConcat/CellState" type="Concat" version="opset1">
			<data axis="0"/>
			<input>
				<port id="0" precision="FP32">
					<dim>1</dim>
					<dim>1</dim>
					<dim>256</dim>
				</port>
				<port id="1" precision="FP32">
					<dim>1</dim>
					<dim>1</dim>
					<dim>256</dim>
				</port>
			</input>
			<output>
				<port id="2" precision="FP32">
					<dim>2</dim>
					<dim>1</dim>
					<dim>256</dim>
				</port>
			</output>
		</layer>
		<layer id="334" name="LSTM_137/FinalConcat/CellState/sink_port_0" type="Result" version="opset1">
			<input>
				<port id="0" precision="FP32">
					<dim>2</dim>
					<dim>1</dim>
					<dim>256</dim>
				</port>
			</input>
		</layer>
		<layer id="335" name="274713915" type="Const" version="opset1">
			<data element_type="i64" offset="11281016" shape="1" size="8"/>
			<output>
				<port id="0" precision="I64">
					<dim>1</dim>
				</port>
			</output>
		</layer>
		<layer id="336" name="LSTM_137/Split/forward/UnsqueezeNumDirections/1" type="Unsqueeze" version="opset1">
			<input>
				<port id="0" precision="FP32">
					<dim>1</dim>
					<dim>256</dim>
				</port>
				<port id="1" precision="I64">
					<dim>1</dim>
				</port>
			</input>
			<output>
				<port id="2" precision="FP32">
					<dim>1</dim>
					<dim>1</dim>
					<dim>256</dim>
				</port>
			</output>
		</layer>
		<layer id="337" name="283713594" type="Const" version="opset1">
			<data element_type="i64" offset="11281016" shape="1" size="8"/>
			<output>
				<port id="0" precision="I64">
					<dim>1</dim>
				</port>
			</output>
		</layer>
		<layer id="338" name="LSTM_137/Split/reverse/UnsqueezeNumDirections/1" type="Unsqueeze" version="opset1">
			<input>
				<port id="0" precision="FP32">
					<dim>1</dim>
					<dim>256</dim>
				</port>
				<port id="1" precision="I64">
					<dim>1</dim>
				</port>
			</input>
			<output>
				<port id="2" precision="FP32">
					<dim>1</dim>
					<dim>1</dim>
					<dim>256</dim>
				</port>
			</output>
		</layer>
		<layer id="339" name="LSTM_137/FinalConcat/HiddenState" type="Concat" version="opset1">
			<data axis="0"/>
			<input>
				<port id="0" precision="FP32">
					<dim>1</dim>
					<dim>1</dim>
					<dim>256</dim>
				</port>
				<port id="1" precision="FP32">
					<dim>1</dim>
					<dim>1</dim>
					<dim>256</dim>
				</port>
			</input>
			<output>
				<port id="2" precision="FP32">
					<dim>2</dim>
					<dim>1</dim>
					<dim>256</dim>
				</port>
			</output>
		</layer>
		<layer id="340" name="LSTM_137/FinalConcat/HiddenState/sink_port_0" type="Result" version="opset1">
			<input>
				<port id="0" precision="FP32">
					<dim>2</dim>
					<dim>1</dim>
					<dim>256</dim>
				</port>
			</input>
		</layer>
		<layer id="341" name="296113612" type="Const" version="opset1">
			<data element_type="i64" offset="11281016" shape="1" size="8"/>
			<output>
				<port id="0" precision="I64">
					<dim>1</dim>
				</port>
			</output>
		</layer>
		<layer id="342" name="LSTM_125/Split/forward/UnsqueezeNumDirections/2" type="Unsqueeze" version="opset1">
			<input>
				<port id="0" precision="FP32">
					<dim>1</dim>
					<dim>256</dim>
				</port>
				<port id="1" precision="I64">
					<dim>1</dim>
				</port>
			</input>
			<output>
				<port id="2" precision="FP32">
					<dim>1</dim>
					<dim>1</dim>
					<dim>256</dim>
				</port>
			</output>
		</layer>
		<layer id="343" name="278113570" type="Const" version="opset1">
			<data element_type="i64" offset="11281016" shape="1" size="8"/>
			<output>
				<port id="0" precision="I64">
					<dim>1</dim>
				</port>
			</output>
		</layer>
		<layer id="344" name="LSTM_125/Split/reverse/UnsqueezeNumDirections/2" type="Unsqueeze" version="opset1">
			<input>
				<port id="0" precision="FP32">
					<dim>1</dim>
					<dim>256</dim>
				</port>
				<port id="1" precision="I64">
					<dim>1</dim>
				</port>
			</input>
			<output>
				<port id="2" precision="FP32">
					<dim>1</dim>
					<dim>1</dim>
					<dim>256</dim>
				</port>
			</output>
		</layer>
		<layer id="345" name="LSTM_125/FinalConcat/CellState" type="Concat" version="opset1">
			<data axis="0"/>
			<input>
				<port id="0" precision="FP32">
					<dim>1</dim>
					<dim>1</dim>
					<dim>256</dim>
				</port>
				<port id="1" precision="FP32">
					<dim>1</dim>
					<dim>1</dim>
					<dim>256</dim>
				</port>
			</input>
			<output>
				<port id="2" precision="FP32">
					<dim>2</dim>
					<dim>1</dim>
					<dim>256</dim>
				</port>
			</output>
		</layer>
		<layer id="346" name="LSTM_125/FinalConcat/CellState/sink_port_0" type="Result" version="opset1">
			<input>
				<port id="0" precision="FP32">
					<dim>2</dim>
					<dim>1</dim>
					<dim>256</dim>
				</port>
			</input>
		</layer>
		<layer id="347" name="295713882" type="Const" version="opset1">
			<data element_type="i64" offset="11281016" shape="1" size="8"/>
			<output>
				<port id="0" precision="I64">
					<dim>1</dim>
				</port>
			</output>
		</layer>
		<layer id="348" name="LSTM_125/Split/forward/UnsqueezeNumDirections/1" type="Unsqueeze" version="opset1">
			<input>
				<port id="0" precision="FP32">
					<dim>1</dim>
					<dim>256</dim>
				</port>
				<port id="1" precision="I64">
					<dim>1</dim>
				</port>
			</input>
			<output>
				<port id="2" precision="FP32">
					<dim>1</dim>
					<dim>1</dim>
					<dim>256</dim>
				</port>
			</output>
		</layer>
		<layer id="349" name="277713747" type="Const" version="opset1">
			<data element_type="i64" offset="11281016" shape="1" size="8"/>
			<output>
				<port id="0" precision="I64">
					<dim>1</dim>
				</port>
			</output>
		</layer>
		<layer id="350" name="LSTM_125/Split/reverse/UnsqueezeNumDirections/1" type="Unsqueeze" version="opset1">
			<input>
				<port id="0" precision="FP32">
					<dim>1</dim>
					<dim>256</dim>
				</port>
				<port id="1" precision="I64">
					<dim>1</dim>
				</port>
			</input>
			<output>
				<port id="2" precision="FP32">
					<dim>1</dim>
					<dim>1</dim>
					<dim>256</dim>
				</port>
			</output>
		</layer>
		<layer id="351" name="LSTM_125/FinalConcat/HiddenState" type="Concat" version="opset1">
			<data axis="0"/>
			<input>
				<port id="0" precision="FP32">
					<dim>1</dim>
					<dim>1</dim>
					<dim>256</dim>
				</port>
				<port id="1" precision="FP32">
					<dim>1</dim>
					<dim>1</dim>
					<dim>256</dim>
				</port>
			</input>
			<output>
				<port id="2" precision="FP32">
					<dim>2</dim>
					<dim>1</dim>
					<dim>256</dim>
				</port>
			</output>
		</layer>
		<layer id="352" name="LSTM_125/FinalConcat/HiddenState/sink_port_0" type="Result" version="opset1">
			<input>
				<port id="0" precision="FP32">
					<dim>2</dim>
					<dim>1</dim>
					<dim>256</dim>
				</port>
			</input>
		</layer>
	</layers>
	<edges>
		<edge from-layer="0" from-port="0" to-layer="2" to-port="0"/>
		<edge from-layer="1" from-port="0" to-layer="2" to-port="1"/>
		<edge from-layer="2" from-port="2" to-layer="4" to-port="0"/>
		<edge from-layer="3" from-port="0" to-layer="4" to-port="1"/>
		<edge from-layer="4" from-port="2" to-layer="5" to-port="0"/>
		<edge from-layer="5" from-port="1" to-layer="6" to-port="0"/>
		<edge from-layer="6" from-port="1" to-layer="8" to-port="0"/>
		<edge from-layer="6" from-port="1" to-layer="22" to-port="0"/>
		<edge from-layer="7" from-port="0" to-layer="8" to-port="1"/>
		<edge from-layer="8" from-port="2" to-layer="10" to-port="0"/>
		<edge from-layer="9" from-port="0" to-layer="10" to-port="1"/>
		<edge from-layer="10" from-port="2" to-layer="11" to-port="0"/>
		<edge from-layer="11" from-port="1" to-layer="13" to-port="0"/>
		<edge from-layer="12" from-port="0" to-layer="13" to-port="1"/>
		<edge from-layer="13" from-port="2" to-layer="15" to-port="0"/>
		<edge from-layer="14" from-port="0" to-layer="15" to-port="1"/>
		<edge from-layer="15" from-port="2" to-layer="16" to-port="0"/>
		<edge from-layer="16" from-port="1" to-layer="18" to-port="0"/>
		<edge from-layer="17" from-port="0" to-layer="18" to-port="1"/>
		<edge from-layer="18" from-port="2" to-layer="20" to-port="0"/>
		<edge from-layer="19" from-port="0" to-layer="20" to-port="1"/>
		<edge from-layer="20" from-port="2" to-layer="25" to-port="0"/>
		<edge from-layer="21" from-port="0" to-layer="22" to-port="1"/>
		<edge from-layer="22" from-port="2" to-layer="24" to-port="0"/>
		<edge from-layer="23" from-port="0" to-layer="24" to-port="1"/>
		<edge from-layer="24" from-port="2" to-layer="25" to-port="1"/>
		<edge from-layer="25" from-port="2" to-layer="26" to-port="0"/>
		<edge from-layer="26" from-port="1" to-layer="28" to-port="0"/>
		<edge from-layer="26" from-port="1" to-layer="41" to-port="1"/>
		<edge from-layer="27" from-port="0" to-layer="28" to-port="1"/>
		<edge from-layer="28" from-port="2" to-layer="30" to-port="0"/>
		<edge from-layer="29" from-port="0" to-layer="30" to-port="1"/>
		<edge from-layer="30" from-port="2" to-layer="31" to-port="0"/>
		<edge from-layer="31" from-port="1" to-layer="33" to-port="0"/>
		<edge from-layer="32" from-port="0" to-layer="33" to-port="1"/>
		<edge from-layer="33" from-port="2" to-layer="35" to-port="0"/>
		<edge from-layer="34" from-port="0" to-layer="35" to-port="1"/>
		<edge from-layer="35" from-port="2" to-layer="36" to-port="0"/>
		<edge from-layer="36" from-port="1" to-layer="38" to-port="0"/>
		<edge from-layer="37" from-port="0" to-layer="38" to-port="1"/>
		<edge from-layer="38" from-port="2" to-layer="40" to-port="0"/>
		<edge from-layer="39" from-port="0" to-layer="40" to-port="1"/>
		<edge from-layer="40" from-port="2" to-layer="41" to-port="0"/>
		<edge from-layer="41" from-port="2" to-layer="42" to-port="0"/>
		<edge from-layer="42" from-port="1" to-layer="44" to-port="0"/>
		<edge from-layer="42" from-port="1" to-layer="57" to-port="1"/>
		<edge from-layer="43" from-port="0" to-layer="44" to-port="1"/>
		<edge from-layer="44" from-port="2" to-layer="46" to-port="0"/>
		<edge from-layer="45" from-port="0" to-layer="46" to-port="1"/>
		<edge from-layer="46" from-port="2" to-layer="47" to-port="0"/>
		<edge from-layer="47" from-port="1" to-layer="49" to-port="0"/>
		<edge from-layer="48" from-port="0" to-layer="49" to-port="1"/>
		<edge from-layer="49" from-port="2" to-layer="51" to-port="0"/>
		<edge from-layer="50" from-port="0" to-layer="51" to-port="1"/>
		<edge from-layer="51" from-port="2" to-layer="52" to-port="0"/>
		<edge from-layer="52" from-port="1" to-layer="54" to-port="0"/>
		<edge from-layer="53" from-port="0" to-layer="54" to-port="1"/>
		<edge from-layer="54" from-port="2" to-layer="56" to-port="0"/>
		<edge from-layer="55" from-port="0" to-layer="56" to-port="1"/>
		<edge from-layer="56" from-port="2" to-layer="57" to-port="0"/>
		<edge from-layer="57" from-port="2" to-layer="58" to-port="0"/>
		<edge from-layer="58" from-port="1" to-layer="60" to-port="0"/>
		<edge from-layer="58" from-port="1" to-layer="74" to-port="0"/>
		<edge from-layer="59" from-port="0" to-layer="60" to-port="1"/>
		<edge from-layer="60" from-port="2" to-layer="62" to-port="0"/>
		<edge from-layer="61" from-port="0" to-layer="62" to-port="1"/>
		<edge from-layer="62" from-port="2" to-layer="63" to-port="0"/>
		<edge from-layer="63" from-port="1" to-layer="65" to-port="0"/>
		<edge from-layer="64" from-port="0" to-layer="65" to-port="1"/>
		<edge from-layer="65" from-port="2" to-layer="67" to-port="0"/>
		<edge from-layer="66" from-port="0" to-layer="67" to-port="1"/>
		<edge from-layer="67" from-port="2" to-layer="68" to-port="0"/>
		<edge from-layer="68" from-port="1" to-layer="70" to-port="0"/>
		<edge from-layer="69" from-port="0" to-layer="70" to-port="1"/>
		<edge from-layer="70" from-port="2" to-layer="72" to-port="0"/>
		<edge from-layer="71" from-port="0" to-layer="72" to-port="1"/>
		<edge from-layer="72" from-port="2" to-layer="77" to-port="0"/>
		<edge from-layer="73" from-port="0" to-layer="74" to-port="1"/>
		<edge from-layer="74" from-port="2" to-layer="76" to-port="0"/>
		<edge from-layer="75" from-port="0" to-layer="76" to-port="1"/>
		<edge from-layer="76" from-port="2" to-layer="77" to-port="1"/>
		<edge from-layer="77" from-port="2" to-layer="78" to-port="0"/>
		<edge from-layer="78" from-port="1" to-layer="80" to-port="0"/>
		<edge from-layer="78" from-port="1" to-layer="93" to-port="1"/>
		<edge from-layer="79" from-port="0" to-layer="80" to-port="1"/>
		<edge from-layer="80" from-port="2" to-layer="82" to-port="0"/>
		<edge from-layer="81" from-port="0" to-layer="82" to-port="1"/>
		<edge from-layer="82" from-port="2" to-layer="83" to-port="0"/>
		<edge from-layer="83" from-port="1" to-layer="85" to-port="0"/>
		<edge from-layer="84" from-port="0" to-layer="85" to-port="1"/>
		<edge from-layer="85" from-port="2" to-layer="87" to-port="0"/>
		<edge from-layer="86" from-port="0" to-layer="87" to-port="1"/>
		<edge from-layer="87" from-port="2" to-layer="88" to-port="0"/>
		<edge from-layer="88" from-port="1" to-layer="90" to-port="0"/>
		<edge from-layer="89" from-port="0" to-layer="90" to-port="1"/>
		<edge from-layer="90" from-port="2" to-layer="92" to-port="0"/>
		<edge from-layer="91" from-port="0" to-layer="92" to-port="1"/>
		<edge from-layer="92" from-port="2" to-layer="93" to-port="0"/>
		<edge from-layer="93" from-port="2" to-layer="94" to-port="0"/>
		<edge from-layer="94" from-port="1" to-layer="96" to-port="0"/>
		<edge from-layer="94" from-port="1" to-layer="109" to-port="1"/>
		<edge from-layer="95" from-port="0" to-layer="96" to-port="1"/>
		<edge from-layer="96" from-port="2" to-layer="98" to-port="0"/>
		<edge from-layer="97" from-port="0" to-layer="98" to-port="1"/>
		<edge from-layer="98" from-port="2" to-layer="99" to-port="0"/>
		<edge from-layer="99" from-port="1" to-layer="101" to-port="0"/>
		<edge from-layer="100" from-port="0" to-layer="101" to-port="1"/>
		<edge from-layer="101" from-port="2" to-layer="103" to-port="0"/>
		<edge from-layer="102" from-port="0" to-layer="103" to-port="1"/>
		<edge from-layer="103" from-port="2" to-layer="104" to-port="0"/>
		<edge from-layer="104" from-port="1" to-layer="106" to-port="0"/>
		<edge from-layer="105" from-port="0" to-layer="106" to-port="1"/>
		<edge from-layer="106" from-port="2" to-layer="108" to-port="0"/>
		<edge from-layer="107" from-port="0" to-layer="108" to-port="1"/>
		<edge from-layer="108" from-port="2" to-layer="109" to-port="0"/>
		<edge from-layer="109" from-port="2" to-layer="110" to-port="0"/>
		<edge from-layer="110" from-port="1" to-layer="112" to-port="0"/>
		<edge from-layer="110" from-port="1" to-layer="125" to-port="1"/>
		<edge from-layer="111" from-port="0" to-layer="112" to-port="1"/>
		<edge from-layer="112" from-port="2" to-layer="114" to-port="0"/>
		<edge from-layer="113" from-port="0" to-layer="114" to-port="1"/>
		<edge from-layer="114" from-port="2" to-layer="115" to-port="0"/>
		<edge from-layer="115" from-port="1" to-layer="117" to-port="0"/>
		<edge from-layer="116" from-port="0" to-layer="117" to-port="1"/>
		<edge from-layer="117" from-port="2" to-layer="119" to-port="0"/>
		<edge from-layer="118" from-port="0" to-layer="119" to-port="1"/>
		<edge from-layer="119" from-port="2" to-layer="120" to-port="0"/>
		<edge from-layer="120" from-port="1" to-layer="122" to-port="0"/>
		<edge from-layer="121" from-port="0" to-layer="122" to-port="1"/>
		<edge from-layer="122" from-port="2" to-layer="124" to-port="0"/>
		<edge from-layer="123" from-port="0" to-layer="124" to-port="1"/>
		<edge from-layer="124" from-port="2" to-layer="125" to-port="0"/>
		<edge from-layer="125" from-port="2" to-layer="126" to-port="0"/>
		<edge from-layer="126" from-port="1" to-layer="128" to-port="0"/>
		<edge from-layer="127" from-port="0" to-layer="128" to-port="1"/>
		<edge from-layer="128" from-port="2" to-layer="130" to-port="0"/>
		<edge from-layer="129" from-port="0" to-layer="130" to-port="1"/>
		<edge from-layer="130" from-port="2" to-layer="132" to-port="0"/>
		<edge from-layer="131" from-port="0" to-layer="132" to-port="1"/>
		<edge from-layer="132" from-port="2" to-layer="134" to-port="0"/>
		<edge from-layer="133" from-port="0" to-layer="134" to-port="1"/>
		<edge from-layer="134" from-port="2" to-layer="136" to-port="0"/>
		<edge from-layer="135" from-port="0" to-layer="136" to-port="1"/>
		<edge from-layer="136" from-port="2" to-layer="138" to-port="0"/>
		<edge from-layer="136" from-port="2" to-layer="142" to-port="0"/>
		<edge from-layer="137" from-port="0" to-layer="138" to-port="1"/>
		<edge from-layer="138" from-port="2" to-layer="158" to-port="0"/>
		<edge from-layer="138" from-port="2" to-layer="172" to-port="0"/>
		<edge from-layer="138" from-port="2" to-layer="175" to-port="0"/>
		<edge from-layer="138" from-port="2" to-layer="183" to-port="0"/>
		<edge from-layer="139" from-port="0" to-layer="151" to-port="0"/>
		<edge from-layer="140" from-port="0" to-layer="150" to-port="0"/>
		<edge from-layer="141" from-port="0" to-layer="142" to-port="1"/>
		<edge from-layer="142" from-port="2" to-layer="143" to-port="0"/>
		<edge from-layer="143" from-port="1" to-layer="146" to-port="0"/>
		<edge from-layer="144" from-port="0" to-layer="146" to-port="1"/>
		<edge from-layer="145" from-port="0" to-layer="146" to-port="2"/>
		<edge from-layer="146" from-port="3" to-layer="148" to-port="0"/>
		<edge from-layer="147" from-port="0" to-layer="148" to-port="1"/>
		<edge from-layer="148" from-port="2" to-layer="150" to-port="1"/>
		<edge from-layer="149" from-port="0" to-layer="150" to-port="2"/>
		<edge from-layer="150" from-port="3" to-layer="151" to-port="1"/>
		<edge from-layer="151" from-port="2" to-layer="207" to-port="0"/>
		<edge from-layer="151" from-port="2" to-layer="194" to-port="0"/>
		<edge from-layer="151" from-port="2" to-layer="155" to-port="0"/>
		<edge from-layer="151" from-port="2" to-layer="168" to-port="0"/>
		<edge from-layer="152" from-port="0" to-layer="155" to-port="1"/>
		<edge from-layer="153" from-port="0" to-layer="155" to-port="2"/>
		<edge from-layer="154" from-port="0" to-layer="155" to-port="3"/>
		<edge from-layer="155" from-port="4" to-layer="157" to-port="0"/>
		<edge from-layer="156" from-port="0" to-layer="157" to-port="1"/>
		<edge from-layer="157" from-port="2" to-layer="164" to-port="0"/>
		<edge from-layer="157" from-port="3" to-layer="181" to-port="0"/>
		<edge from-layer="158" from-port="1" to-layer="161" to-port="0"/>
		<edge from-layer="159" from-port="0" to-layer="161" to-port="1"/>
		<edge from-layer="160" from-port="0" to-layer="161" to-port="2"/>
		<edge from-layer="161" from-port="3" to-layer="163" to-port="0"/>
		<edge from-layer="162" from-port="0" to-layer="163" to-port="1"/>
		<edge from-layer="163" from-port="2" to-layer="171" to-port="1"/>
		<edge from-layer="163" from-port="2" to-layer="164" to-port="1"/>
		<edge from-layer="164" from-port="2" to-layer="172" to-port="1"/>
		<edge from-layer="165" from-port="0" to-layer="168" to-port="1"/>
		<edge from-layer="166" from-port="0" to-layer="168" to-port="2"/>
		<edge from-layer="167" from-port="0" to-layer="168" to-port="3"/>
		<edge from-layer="168" from-port="4" to-layer="170" to-port="0"/>
		<edge from-layer="169" from-port="0" to-layer="170" to-port="1"/>
		<edge from-layer="170" from-port="3" to-layer="182" to-port="0"/>
		<edge from-layer="170" from-port="2" to-layer="171" to-port="0"/>
		<edge from-layer="171" from-port="2" to-layer="172" to-port="2"/>
		<edge from-layer="172" from-port="4" to-layer="231" to-port="0"/>
		<edge from-layer="172" from-port="5" to-layer="254" to-port="0"/>
		<edge from-layer="172" from-port="3" to-layer="174" to-port="0"/>
		<edge from-layer="173" from-port="0" to-layer="174" to-port="1"/>
		<edge from-layer="174" from-port="2" to-layer="186" to-port="0"/>
		<edge from-layer="175" from-port="1" to-layer="178" to-port="0"/>
		<edge from-layer="176" from-port="0" to-layer="178" to-port="1"/>
		<edge from-layer="177" from-port="0" to-layer="178" to-port="2"/>
		<edge from-layer="178" from-port="3" to-layer="180" to-port="0"/>
		<edge from-layer="179" from-port="0" to-layer="180" to-port="1"/>
		<edge from-layer="180" from-port="2" to-layer="182" to-port="1"/>
		<edge from-layer="180" from-port="2" to-layer="181" to-port="1"/>
		<edge from-layer="181" from-port="2" to-layer="183" to-port="1"/>
		<edge from-layer="182" from-port="2" to-layer="183" to-port="2"/>
		<edge from-layer="183" from-port="3" to-layer="185" to-port="0"/>
		<edge from-layer="183" from-port="5" to-layer="256" to-port="0"/>
		<edge from-layer="183" from-port="4" to-layer="233" to-port="0"/>
		<edge from-layer="184" from-port="0" to-layer="185" to-port="1"/>
		<edge from-layer="185" from-port="2" to-layer="186" to-port="1"/>
		<edge from-layer="186" from-port="2" to-layer="188" to-port="0"/>
		<edge from-layer="187" from-port="0" to-layer="188" to-port="1"/>
		<edge from-layer="188" from-port="2" to-layer="190" to-port="0"/>
		<edge from-layer="189" from-port="0" to-layer="190" to-port="1"/>
		<edge from-layer="190" from-port="2" to-layer="197" to-port="0"/>
		<edge from-layer="190" from-port="2" to-layer="222" to-port="0"/>
		<edge from-layer="190" from-port="2" to-layer="214" to-port="0"/>
		<edge from-layer="190" from-port="2" to-layer="211" to-port="0"/>
		<edge from-layer="191" from-port="0" to-layer="194" to-port="1"/>
		<edge from-layer="192" from-port="0" to-layer="194" to-port="2"/>
		<edge from-layer="193" from-port="0" to-layer="194" to-port="3"/>
		<edge from-layer="194" from-port="4" to-layer="196" to-port="0"/>
		<edge from-layer="195" from-port="0" to-layer="196" to-port="1"/>
		<edge from-layer="196" from-port="3" to-layer="220" to-port="0"/>
		<edge from-layer="196" from-port="2" to-layer="203" to-port="0"/>
		<edge from-layer="197" from-port="1" to-layer="200" to-port="0"/>
		<edge from-layer="198" from-port="0" to-layer="200" to-port="1"/>
		<edge from-layer="199" from-port="0" to-layer="200" to-port="2"/>
		<edge from-layer="200" from-port="3" to-layer="202" to-port="0"/>
		<edge from-layer="201" from-port="0" to-layer="202" to-port="1"/>
		<edge from-layer="202" from-port="2" to-layer="210" to-port="1"/>
		<edge from-layer="202" from-port="2" to-layer="203" to-port="1"/>
		<edge from-layer="203" from-port="2" to-layer="211" to-port="1"/>
		<edge from-layer="204" from-port="0" to-layer="207" to-port="1"/>
		<edge from-layer="205" from-port="0" to-layer="207" to-port="2"/>
		<edge from-layer="206" from-port="0" to-layer="207" to-port="3"/>
		<edge from-layer="207" from-port="4" to-layer="209" to-port="0"/>
		<edge from-layer="208" from-port="0" to-layer="209" to-port="1"/>
		<edge from-layer="209" from-port="2" to-layer="210" to-port="0"/>
		<edge from-layer="209" from-port="3" to-layer="221" to-port="0"/>
		<edge from-layer="210" from-port="2" to-layer="211" to-port="2"/>
		<edge from-layer="211" from-port="3" to-layer="213" to-port="0"/>
		<edge from-layer="211" from-port="5" to-layer="259" to-port="0"/>
		<edge from-layer="211" from-port="4" to-layer="236" to-port="0"/>
		<edge from-layer="212" from-port="0" to-layer="213" to-port="1"/>
		<edge from-layer="213" from-port="2" to-layer="225" to-port="0"/>
		<edge from-layer="214" from-port="1" to-layer="217" to-port="0"/>
		<edge from-layer="215" from-port="0" to-layer="217" to-port="1"/>
		<edge from-layer="216" from-port="0" to-layer="217" to-port="2"/>
		<edge from-layer="217" from-port="3" to-layer="219" to-port="0"/>
		<edge from-layer="218" from-port="0" to-layer="219" to-port="1"/>
		<edge from-layer="219" from-port="2" to-layer="220" to-port="1"/>
		<edge from-layer="219" from-port="2" to-layer="221" to-port="1"/>
		<edge from-layer="220" from-port="2" to-layer="222" to-port="1"/>
		<edge from-layer="221" from-port="2" to-layer="222" to-port="2"/>
		<edge from-layer="222" from-port="4" to-layer="238" to-port="0"/>
		<edge from-layer="222" from-port="3" to-layer="224" to-port="0"/>
		<edge from-layer="222" from-port="5" to-layer="261" to-port="0"/>
		<edge from-layer="223" from-port="0" to-layer="224" to-port="1"/>
		<edge from-layer="224" from-port="2" to-layer="225" to-port="1"/>
		<edge from-layer="225" from-port="2" to-layer="227" to-port="0"/>
		<edge from-layer="226" from-port="0" to-layer="227" to-port="1"/>
		<edge from-layer="227" from-port="2" to-layer="229" to-port="0"/>
		<edge from-layer="228" from-port="0" to-layer="229" to-port="1"/>
		<edge from-layer="229" from-port="2" to-layer="270" to-port="0"/>
		<edge from-layer="229" from-port="2" to-layer="281" to-port="0"/>
		<edge from-layer="229" from-port="2" to-layer="273" to-port="0"/>
		<edge from-layer="229" from-port="2" to-layer="246" to-port="0"/>
		<edge from-layer="230" from-port="0" to-layer="231" to-port="1"/>
		<edge from-layer="231" from-port="2" to-layer="234" to-port="0"/>
		<edge from-layer="232" from-port="0" to-layer="233" to-port="1"/>
		<edge from-layer="233" from-port="2" to-layer="234" to-port="1"/>
		<edge from-layer="234" from-port="2" to-layer="240" to-port="0"/>
		<edge from-layer="235" from-port="0" to-layer="236" to-port="1"/>
		<edge from-layer="236" from-port="2" to-layer="239" to-port="0"/>
		<edge from-layer="237" from-port="0" to-layer="238" to-port="1"/>
		<edge from-layer="238" from-port="2" to-layer="239" to-port="1"/>
		<edge from-layer="239" from-port="2" to-layer="240" to-port="1"/>
		<edge from-layer="240" from-port="2" to-layer="243" to-port="0"/>
		<edge from-layer="241" from-port="0" to-layer="243" to-port="1"/>
		<edge from-layer="242" from-port="0" to-layer="243" to-port="2"/>
		<edge from-layer="243" from-port="4" to-layer="290" to-port="0"/>
		<edge from-layer="243" from-port="3" to-layer="245" to-port="0"/>
		<edge from-layer="244" from-port="0" to-layer="245" to-port="1"/>
		<edge from-layer="245" from-port="2" to-layer="252" to-port="0"/>
		<edge from-layer="245" from-port="3" to-layer="279" to-port="0"/>
		<edge from-layer="246" from-port="1" to-layer="249" to-port="0"/>
		<edge from-layer="247" from-port="0" to-layer="249" to-port="1"/>
		<edge from-layer="248" from-port="0" to-layer="249" to-port="2"/>
		<edge from-layer="249" from-port="3" to-layer="251" to-port="0"/>
		<edge from-layer="250" from-port="0" to-layer="251" to-port="1"/>
		<edge from-layer="251" from-port="2" to-layer="269" to-port="1"/>
		<edge from-layer="251" from-port="2" to-layer="252" to-port="1"/>
		<edge from-layer="252" from-port="2" to-layer="270" to-port="1"/>
		<edge from-layer="253" from-port="0" to-layer="254" to-port="1"/>
		<edge from-layer="254" from-port="2" to-layer="257" to-port="0"/>
		<edge from-layer="255" from-port="0" to-layer="256" to-port="1"/>
		<edge from-layer="256" from-port="2" to-layer="257" to-port="1"/>
		<edge from-layer="257" from-port="2" to-layer="263" to-port="0"/>
		<edge from-layer="258" from-port="0" to-layer="259" to-port="1"/>
		<edge from-layer="259" from-port="2" to-layer="262" to-port="0"/>
		<edge from-layer="260" from-port="0" to-layer="261" to-port="1"/>
		<edge from-layer="261" from-port="2" to-layer="262" to-port="1"/>
		<edge from-layer="262" from-port="2" to-layer="263" to-port="1"/>
		<edge from-layer="263" from-port="2" to-layer="266" to-port="0"/>
		<edge from-layer="264" from-port="0" to-layer="266" to-port="1"/>
		<edge from-layer="265" from-port="0" to-layer="266" to-port="2"/>
		<edge from-layer="266" from-port="3" to-layer="268" to-port="0"/>
		<edge from-layer="266" from-port="4" to-layer="299" to-port="0"/>
		<edge from-layer="267" from-port="0" to-layer="268" to-port="1"/>
		<edge from-layer="268" from-port="2" to-layer="269" to-port="0"/>
		<edge from-layer="268" from-port="3" to-layer="280" to-port="0"/>
		<edge from-layer="269" from-port="2" to-layer="270" to-port="2"/>
		<edge from-layer="270" from-port="3" to-layer="272" to-port="0"/>
		<edge from-layer="270" from-port="5" to-layer="342" to-port="0"/>
		<edge from-layer="270" from-port="4" to-layer="348" to-port="0"/>
		<edge from-layer="271" from-port="0" to-layer="272" to-port="1"/>
		<edge from-layer="272" from-port="2" to-layer="284" to-port="0"/>
		<edge from-layer="273" from-port="1" to-layer="276" to-port="0"/>
		<edge from-layer="274" from-port="0" to-layer="276" to-port="1"/>
		<edge from-layer="275" from-port="0" to-layer="276" to-port="2"/>
		<edge from-layer="276" from-port="3" to-layer="278" to-port="0"/>
		<edge from-layer="277" from-port="0" to-layer="278" to-port="1"/>
		<edge from-layer="278" from-port="2" to-layer="280" to-port="1"/>
		<edge from-layer="278" from-port="2" to-layer="279" to-port="1"/>
		<edge from-layer="279" from-port="2" to-layer="281" to-port="1"/>
		<edge from-layer="280" from-port="2" to-layer="281" to-port="2"/>
		<edge from-layer="281" from-port="4" to-layer="350" to-port="0"/>
		<edge from-layer="281" from-port="5" to-layer="344" to-port="0"/>
		<edge from-layer="281" from-port="3" to-layer="283" to-port="0"/>
		<edge from-layer="282" from-port="0" to-layer="283" to-port="1"/>
		<edge from-layer="283" from-port="2" to-layer="284" to-port="1"/>
		<edge from-layer="284" from-port="2" to-layer="286" to-port="0"/>
		<edge from-layer="285" from-port="0" to-layer="286" to-port="1"/>
		<edge from-layer="286" from-port="2" to-layer="288" to-port="0"/>
		<edge from-layer="287" from-port="0" to-layer="288" to-port="1"/>
		<edge from-layer="288" from-port="2" to-layer="312" to-port="0"/>
		<edge from-layer="288" from-port="2" to-layer="301" to-port="0"/>
		<edge from-layer="288" from-port="2" to-layer="304" to-port="0"/>
		<edge from-layer="288" from-port="2" to-layer="291" to-port="0"/>
		<edge from-layer="289" from-port="0" to-layer="290" to-port="1"/>
		<edge from-layer="290" from-port="2" to-layer="297" to-port="0"/>
		<edge from-layer="290" from-port="3" to-layer="310" to-port="0"/>
		<edge from-layer="291" from-port="1" to-layer="294" to-port="0"/>
		<edge from-layer="292" from-port="0" to-layer="294" to-port="1"/>
		<edge from-layer="293" from-port="0" to-layer="294" to-port="2"/>
		<edge from-layer="294" from-port="3" to-layer="296" to-port="0"/>
		<edge from-layer="295" from-port="0" to-layer="296" to-port="1"/>
		<edge from-layer="296" from-port="2" to-layer="300" to-port="1"/>
		<edge from-layer="296" from-port="2" to-layer="297" to-port="1"/>
		<edge from-layer="297" from-port="2" to-layer="301" to-port="1"/>
		<edge from-layer="298" from-port="0" to-layer="299" to-port="1"/>
		<edge from-layer="299" from-port="2" to-layer="300" to-port="0"/>
		<edge from-layer="299" from-port="3" to-layer="311" to-port="0"/>
		<edge from-layer="300" from-port="2" to-layer="301" to-port="2"/>
		<edge from-layer="301" from-port="3" to-layer="303" to-port="0"/>
		<edge from-layer="301" from-port="4" to-layer="336" to-port="0"/>
		<edge from-layer="301" from-port="5" to-layer="330" to-port="0"/>
		<edge from-layer="302" from-port="0" to-layer="303" to-port="1"/>
		<edge from-layer="303" from-port="2" to-layer="315" to-port="0"/>
		<edge from-layer="304" from-port="1" to-layer="307" to-port="0"/>
		<edge from-layer="305" from-port="0" to-layer="307" to-port="1"/>
		<edge from-layer="306" from-port="0" to-layer="307" to-port="2"/>
		<edge from-layer="307" from-port="3" to-layer="309" to-port="0"/>
		<edge from-layer="308" from-port="0" to-layer="309" to-port="1"/>
		<edge from-layer="309" from-port="2" to-layer="310" to-port="1"/>
		<edge from-layer="309" from-port="2" to-layer="311" to-port="1"/>
		<edge from-layer="310" from-port="2" to-layer="312" to-port="1"/>
		<edge from-layer="311" from-port="2" to-layer="312" to-port="2"/>
		<edge from-layer="312" from-port="4" to-layer="338" to-port="0"/>
		<edge from-layer="312" from-port="5" to-layer="332" to-port="0"/>
		<edge from-layer="312" from-port="3" to-layer="314" to-port="0"/>
		<edge from-layer="313" from-port="0" to-layer="314" to-port="1"/>
		<edge from-layer="314" from-port="2" to-layer="315" to-port="1"/>
		<edge from-layer="315" from-port="2" to-layer="317" to-port="0"/>
		<edge from-layer="316" from-port="0" to-layer="317" to-port="1"/>
		<edge from-layer="317" from-port="2" to-layer="319" to-port="0"/>
		<edge from-layer="318" from-port="0" to-layer="319" to-port="1"/>
		<edge from-layer="319" from-port="2" to-layer="321" to-port="0"/>
		<edge from-layer="320" from-port="0" to-layer="321" to-port="1"/>
		<edge from-layer="321" from-port="2" to-layer="323" to-port="0"/>
		<edge from-layer="322" from-port="0" to-layer="323" to-port="1"/>
		<edge from-layer="323" from-port="2" to-layer="325" to-port="0"/>
		<edge from-layer="324" from-port="0" to-layer="325" to-port="1"/>
		<edge from-layer="325" from-port="2" to-layer="327" to-port="0"/>
		<edge from-layer="326" from-port="0" to-layer="327" to-port="1"/>
		<edge from-layer="327" from-port="2" to-layer="328" to-port="0"/>
		<edge from-layer="329" from-port="0" to-layer="330" to-port="1"/>
		<edge from-layer="330" from-port="2" to-layer="333" to-port="0"/>
		<edge from-layer="331" from-port="0" to-layer="332" to-port="1"/>
		<edge from-layer="332" from-port="2" to-layer="333" to-port="1"/>
		<edge from-layer="333" from-port="2" to-layer="334" to-port="0"/>
		<edge from-layer="335" from-port="0" to-layer="336" to-port="1"/>
		<edge from-layer="336" from-port="2" to-layer="339" to-port="0"/>
		<edge from-layer="337" from-port="0" to-layer="338" to-port="1"/>
		<edge from-layer="338" from-port="2" to-layer="339" to-port="1"/>
		<edge from-layer="339" from-port="2" to-layer="340" to-port="0"/>
		<edge from-layer="341" from-port="0" to-layer="342" to-port="1"/>
		<edge from-layer="342" from-port="2" to-layer="345" to-port="0"/>
		<edge from-layer="343" from-port="0" to-layer="344" to-port="1"/>
		<edge from-layer="344" from-port="2" to-layer="345" to-port="1"/>
		<edge from-layer="345" from-port="2" to-layer="346" to-port="0"/>
		<edge from-layer="347" from-port="0" to-layer="348" to-port="1"/>
		<edge from-layer="348" from-port="2" to-layer="351" to-port="0"/>
		<edge from-layer="349" from-port="0" to-layer="350" to-port="1"/>
		<edge from-layer="350" from-port="2" to-layer="351" to-port="1"/>
		<edge from-layer="351" from-port="2" to-layer="352" to-port="0"/>
	</edges>
	<meta_data>
		<MO_version value="2021.4.0-3827-c5b65f2cb1d-releases/2021/4"/>
		<cli_parameters>
			<caffe_parser_path value="DIR"/>
			<data_type value="FP32"/>
			<disable_nhwc_to_nchw value="False"/>
			<disable_omitting_optional value="False"/>
			<disable_resnet_optimization value="False"/>
			<disable_weights_compression value="False"/>
			<enable_concat_optimization value="False"/>
			<enable_flattening_nested_params value="False"/>
			<enable_ssd_gluoncv value="False"/>
			<extensions value="DIR"/>
			<framework value="onnx"/>
			<freeze_placeholder_with_value value="{}"/>
			<generate_deprecated_IR_V7 value="False"/>
			<input value="imgs"/>
			<input_model value="DIR/model.onnx"/>
			<input_model_is_text value="False"/>
			<input_shape value="[1,1,32,128]"/>
			<k value="DIR/CustomLayersMapping.xml"/>
			<keep_shape_ops value="True"/>
			<legacy_ir_generation value="False"/>
			<legacy_mxnet_model value="False"/>
			<log_level value="ERROR"/>
			<mean_scale_values value="{'imgs': {'mean': None, 'scale': array([255.])}}"/>
			<mean_values value="()"/>
			<model_name value="text-recognition-0014"/>
			<output value="['logits']"/>
			<output_dir value="DIR"/>
			<placeholder_data_types value="{}"/>
			<placeholder_shapes value="{'imgs': array([  1,   1,  32, 128])}"/>
			<progress value="False"/>
			<remove_memory value="False"/>
			<remove_output_softmax value="False"/>
			<reverse_input_channels value="True"/>
			<save_params_from_nd value="False"/>
			<scale_values value="imgs[255.0]"/>
			<silent value="False"/>
			<static_shape value="False"/>
			<stream_output value="False"/>
			<transform value=""/>
			<unset unset_cli_parameters="batch, counts, disable_fusing, disable_gfusing, finegrain_fusing, input_checkpoint, input_meta_graph, input_proto, input_symbol, mean_file, mean_file_offsets, move_to_preprocess, nd_prefix_name, pretrained_model_name, saved_model_dir, saved_model_tags, scale, tensorboard_logdir, tensorflow_custom_layer_libraries, tensorflow_custom_operations_config_update, tensorflow_object_detection_api_pipeline_config, tensorflow_use_custom_operations_config, transformations_config"/>
		</cli_parameters>
	</meta_data>
</net>
